KYTICE/10x KYTICE/10x kytice A.pth (torch, 975660 bytes, 110 tensors)

weight f4 [76, 64]
00000000: fc30 8d3e dd66 12bc c7fe cfbe ef8e 5bbf
00000010: 049f 213f 3d0e 263e cc08 673f 7aad 713c
00000020: 8f9b c03e d2a4 953f 99a9 bcbf 1c3c d4be
00000030: 1ca3 8c3e a815 f9bd 0356 5dbf 2ee7 bd3f
00000040: 9c97 bb3f 9bc1 74be d6a2 c93e 4fab 7b3f
00000050: c88c 0ac0 bd15 b53e 5802 c63f 4f58 233f
00000060: c81c 193e 6df3 cebf 9238 99bf 5d18 afbe
00000070: d5ae bf3e f5a1 5dbf d712 bf3f 51c6 2140
00000080: 5e93 2ebf 2417 babe 73dd 863f 5cc6 b23d
00000090: 3b13 713e a14f 903f 5173 85bf db2b aebe
000000a0: 75ec efbe 9efa 6bbf 2c15 243f 6172 b8bf
000000b0: 3824 a9bf d159 233f 9846 12bf 41fa 43bf
000000c0: 757f dd3f 79ee 5abf c7e0 b33f b7f5 afbe
000000d0: 3726 c9bf 1ae0 0440 4955 2f40 f6f6 d8bf
000000e0: 595e b83f 7038 bebf f234 543f c894 acbe
000000f0: ac0a 313f 29e2 c33f 42b1 c23f 68d5 e6be
00000100: f11a 36bf 2fb1 093f ae24 e5bd b0ff 8cbd
00000110: 9b6d f2be fd89 093f e2e7 56be 4e8e 87bf
00000120: 041a 0740 0099 07bf 2d57 4b3e dd0a 233f
00000130: a1f4 bcbf 37b0 813f e5d7 223e 879c 563e
00000140: b850 2540 827c 9fbf 1305 903f 4986 f53e
00000150: 9cf6 d6bf ad99 a1bf ea07 3c3f 5ca5 15be
00000160: f884 c33e f336 d9be 0323 ed3e 3079 37bf
00000170: db4c c2be 6ef9 f8be a92c 8cbf b5f8 a2be
00000180: 644d e0bf 48e8 b4bf b564 0ebe 2617 813f
00000190: a951 8a3d bc63 3ebf 75fb a2be 102e 39bc
000001a0: cf88 90be 539a 2abe f52e b53e 94b3 a83f
000001b0: bd63 143d 248b 2640 18d2 16bf db75 febf
000001c0: 5191 7ebe 1b2e 8ebd 20f5 773f f8be f1bf
000001d0: 1c22 213e edf1 ef3e 5aef dbbf bcdb 223f
000001e0: 984c e83f c0fe 863e e807 833e a83e 47bf
000001f0: e427 41bf bcd3 b13e 846d 0abf 2461 c9bf
00000200: 0024 05c0 49fc fe3f 7633 b63f a499 acbe
00000210: 6540 ac3f 5598 d13f 8288 afbe 183f b8bf
00000220: 6c0a 1cbe d9ee eebc eaa3 793f 60d0 0f3f
00000230: d70f ef3e 5f94 67bf e3bb 4b3f 60a9 833f
00000240: b568 1040 b38f 673f daf5 d7bf 3684 5bbe
00000250: 2bf6 60be 13eb b2be 003b 46bf 9a07 a23f
00000260: 6324 62bf 28d8 d03d e8d7 993f 7b75 8ebe
00000270: ced8 92bf 3cb5 45bf 6354 d13f 6270 34bf
00000280: 2ac6 34bf 1286 74bc 2225 85be af4c 1440
00000290: a2ea 30c0 b268 f53e 159d 3dbf 5718 cdbe
000002a0: ff02 4a3e 5ca0 0140 2595 0cbe cef4 84be
000002b0: c96b b6bf 7c64 8cbd e594 f9bf 6842 abbf
000002c0: 9d12 9fbe 197f 8fbf 72c0 42bd 7bc4 5f3c
000002d0: 4269 6d3f dff6 713f 1b52 cabf ea3f b23f
000002e0: 236f 6b3f cfa2 993f ccb6 2c3f 6182 b1bf
000002f0: 4d92 e0be 5685 0440 7024 b33e c9f1 b13f
00000300: 1445 0c3e 8f32 b5be 13f9 f33f 0c72 b73f
00000310: a8e9 8a3f a982 0fbf 87e1 0abf 2720 1f3f
00000320: 112d 7b3c db17 b9bf f530 823f 0f24 073f
00000330: 36c5 96bf 00c3 6abf c3f1 5abe faab d73d
00000340: 49b0 da3e 1d5b 1ebf 8622 90be eb2f 17bf
00000350: 2503 0f3f 101a 093f 33e8 943f aa21 473f
00000360: 44c8 eb3e 2bc9 463f a4fd 8fbe b733 67bf
00000370: 7bf7 23bf 88f1 a83e c295 d6be 4438 96be
00000380: 7160 00bf 44b7 84be 8b5f 88bd a740 aabe
00000390: 8b41 303d ae8f 623f 09f8 973d 7637 19bf
000003a0: b3a2 5f3f f864 cfbf afa8 123f 15ce f7bf
000003b0: c8a7 8abf 92d9 163d 3102 10bf d9ab bfbe
000003c0: 569d ca3f 7a74 14be 548b 21bf 4747 9bbf
000003d0: edac 153f c9c4 83be b363 e23d f13f 48bf
000003e0: e82d ecbe fe26 d13e 28d6 69bf b3f8 adbf
000003f0: 412e 903f edaa e7bf 4118 0bbf de58 803f
0.27576435 -0.008935657 -0.40624067 -0.85764974 0.63133264 0.16216369 0.902478 0.014750833
0.37618682 1.1690924 -1.4739257 -0.4145211 0.27468193 -0.12162334 -0.8645937 1.4836175
1.4655643 -0.2390198 0.39382046 0.9830827 -2.1648426 0.35368147 1.5469465 0.63806623
0.14952385 -1.6168038 -1.1970389 -0.34198275 0.37438074 -0.8657525 1.4927624 2.5277293
-0.68193614 -0.3634578 1.0536331 0.0872924 0.23542492 1.1274301 -1.0425817 -0.34017834
-0.4686009 -0.92179286 0.64094806 -1.4409906 -1.3214178 0.63808924 -0.5713897 -0.7655373
1.7304522 -0.8552013 1.4052972 -0.34367153 -1.5714787 2.076178 2.7395804 -1.6950366
1.4403793 -1.4860973 0.8289329 -0.3370726 0.6915691 1.5303394 1.5210345 -0.4508469
-0.7113486 0.53785986 -0.11188637 -0.06884706 -0.47349247 0.5372618 -0.20986894 -1.0590303
2.1109629 -0.52967834 0.19857474 0.6368845 -1.4762155 1.0131902 0.1590267 0.20958148
2.5830517 -1.2459872 1.1251549 0.47954014 -1.6794009 -1.2625023 0.73449576 -0.14613861
0.38187385 -0.42424735 0.46315774 -0.7166929 -0.3794926 -0.486278 -1.0951129 -0.31830373
-1.7523618 -1.4133387 -0.13905604 1.0085189 0.06753857 -0.7437093 -0.3183247 -0.011302486
-0.28229377 -0.16660433 0.35387388 1.3179803 0.03622793 2.6022425 -0.5891433 -1.9879717
-0.24860121 -0.06942388 0.96858406 -1.8886404 0.15735668 0.46864262 -1.7182419 0.6361654
1.8148375 0.26366234 0.2559197 -0.7782998 -0.75451493 0.34731853 -0.5407336 -1.573277
-2.0803223 1.9920741 1.4234455 -0.33710968 1.3457152 1.6374613 -0.34283835 -1.4394255
-0.1523835 -0.029166626 0.9751574 0.5617733 0.46691772 -0.9046077 0.7958357 1.0286064
2.2563908 0.9045364 -1.6871903 -0.21437153 -0.21968906 -0.34944972 -0.77433777 1.265857
-0.8833677 0.101974785 1.2019014 -0.27824005 -1.1472414 -0.77229667 1.6353878 -0.7048398
-0.70614874 -0.014924543 -0.26004893 2.3171804 -2.7643209 0.4793144 -0.74067813 -0.40057632
0.19727705 2.0254126 -0.13728769 -0.2596802 -1.4251643 -0.068551034 -1.9498564 -1.337964
-0.31068888 -1.1210662 -0.04754681 0.013657684 0.92738736 0.9451732 -1.5806307 1.3925755
0.91966456 1.200281 0.67466426 -1.3867913 -0.4386162 2.0706382 0.34988737 1.3901912
0.13698226 -0.35390136 1.9060386 1.4331679 1.0852556 -0.56058747 -0.5425038 0.62158436
0.015330569 -1.4460405 1.017119 0.52789396 -1.1778934 -0.91703796 -0.21381287 0.10530849
0.4271262 -0.6185778 -0.2815134 -0.5905749 0.55864173 0.53555393 1.1633362 0.7778574
0.46051228 0.7765071 -0.281232 -0.90313286 -0.640495 0.32996774 -0.4191113 -0.29339802
-0.5014716 -0.2592107 -0.066588484 -0.3325245 0.043031257 0.8850049 0.07420356 -0.5985025
0.87357634 -1.6202688 0.5728864 -1.9359766 -1.0832453 0.036828585 -0.56253344 -0.37435797
1.5829265 -0.14497557 -0.6310322 -1.2131127 0.5846699 -0.25736073 0.11054172 -0.78222567
-0.46128774 0.4085006 -0.913424 -1.3591522 1.1264116 -1.8099037 -0.54333884 1.002712

weight f4 [32, 64]
00000000: eaa7 2cbe b0a4 d7bf ca03 fe3e 88ca 0abf
00000010: db8e 803f 07c8 e13e b0ee 81be e8ab bb3f
00000020: e8e2 923f 47bf c0bf 8345 2e3f 014d d03c
00000030: 28b8 dabf 13d9 d13f 43c9 99bf e324 58bf
00000040: e214 e43d 052c 2d3e b4f6 53bf f068 bfbd
00000050: ef34 bbbf 7097 a43f 0043 ac3e dce2 0240
00000060: 29b2 60bf b397 c6bf ddb9 863f 0927 84bd
00000070: 9553 dbbe 9a26 a43f ee41 083f 3cff a7bf
00000080: 43cc d5be ea85 e83e 4d52 433f 6f00 e33a
00000090: 3423 a5bd 5d2e 2b40 ff49 d43f abfd 0a3d
000000a0: 0bd1 203f 3a42 f7be 6b8c 28bf d7dc 62bf
000000b0: dbd1 0bc0 0abb 6dbf 3d2b aabe 23bb 8b3f
000000c0: 8c11 8cbe 0130 afbf 7078 123f 50ac 1840
000000d0: 05af 86bf 2cf3 593f 3766 98bf aa06 52bf
000000e0: 2042 c7bf b2f9 f1be d8e2 763f e541 243f
000000f0: a53c 20bf 8051 e83f d50c 283c 67a6 07be
00000100: 9313 a8bf e828 2b3f 930e 773f 771d dfbf
00000110: 3df8 5dbd ebb5 0a40 fdd9 d2bf f073 2d3f
00000120: e538 1f3f 328e 0840 66aa 5e3f a629 bf3e
00000130: 03a6 30bf bf08 203f b808 7b3f 456a 613f
00000140: 0c1e 223f dbdd b8be 3777 0e3f fd68 e13d
00000150: 11e5 9fbf b3d4 bbbf 532f 16be 9e61 a1bf
00000160: d738 893f 4117 2c3f f2df 693f bd04 cdbd
00000170: b35a 44bf 396e 573f 4864 933f ac5f 01bf
00000180: afb9 dbbe 6dd1 a93f d9c8 c13e ceb0 bc3f
00000190: 9fd7 5dbd fca1 01bd a806 0a3f 78d3 c13f
000001a0: 2fa6 71bd a06a ccbe 31db 503f 322b d6be
000001b0: 0760 8c3f 5345 393e 72c1 123e aa93 63be
000001c0: 1468 8cbe 16a4 86bf 9edf 4540 3c59 2ebf
000001d0: e016 553f 70c9 833f 6617 ba3f 68d2 34be
000001e0: 84b7 763f c44a 8dbf 79fb ef3f d498 09bf
000001f0: 29cd c2bd 13c6 473f 5a22 963f aa80 ce3e
00000200: 534a 9e3b afcb 9a3e 51a1 89bf 2856 45bf
00000210: 3053 b73e 1e68 dbbf a7b1 8dbe 5559 dcbe
00000220: dd8f 4cbe 1d26 b0be 52e0 c9bf f2b7 a03f
00000230: 2aa0 84bf 543d 123f 4d3c 773b b8db 0bbf
00000240: 28ad 9bbf 0f3a 0640 431a 683f d44e 0bbe
00000250: e388 c3bf d9d8 67bf 7ed6 a3bf 3e92 25bf
00000260: 0e2c 6abf b96f 073f 4ec4 323e 01d8 813f
00000270: bc34 2b3e 258d 973f 60f3 a43f 0cab 97bf
00000280: 2b9a 953f a7b0 4a3f 3d4e ddbe 7d1a cbbf
00000290: e735 1b3b 88b6 9d3f c1a1 a03f cc6e d13e
000002a0: 11ec dbbc d300 cfbe 4e5b c93e 4545 203f
000002b0: 076f c4bb 93bf 533e faf4 9ebf e265 843f
000002c0: 9724 e8bf 4bf3 433f 994a ba3e 32e6 6c38
000002d0: f317 903c 747f 2e3f 8ce3 c7bf fe7b 283f
000002e0: 1beb 803f 6420 183f 3efe 0f3f 5bb8 65be
000002f0: 587c 01be a889 5a3f 0bde 893e 4a22 bcbf
00000300: 9f17 933e 1482 1140 6ad2 113f 2070 903e
00000310: 5610 61bf 44a9 f83f 702c 913f 6203 223d
00000320: 4938 393f 9c96 993f 17b0 dfbf 90da 0e3f
00000330: 7d80 e43f 4647 083e 5985 9ebd d90e 613e
00000340: c072 553e 5944 82bf d1ed 073f ee5e 07bf
00000350: b5ba 123f b2c8 003e 7196 ef3f 5d8f d9be
00000360: 71b0 1d3f c3c5 a8be b26d 0e3f e92b 3c3f
00000370: e3ec 523f 5595 24c0 e02c c8bf c288 ee3e
00000380: b61a ba3e fd03 d33f c72c 77bf 8e6d 023f
00000390: 6aea b4bc 2819 513f 582c 1d3e 8836 7c3f
000003a0: d7fc 14bf e10f 0cc0 8e37 57bf 7c70 1abf
000003b0: 5c4e 0e40 eadb a4bf 80a8 9f3f c678 aa3f
000003c0: 62a4 283f 2276 ca3e 40bb 9e3f f7c3 6f3f
000003d0: e99d d3bc 4e73 c3be b6ae 633f 3db4 333f
000003e0: f7d5 55bf 7d27 a53f e4e3 e6bf 491f a23e
000003f0: 0228 67bf a4c4 8c3f 2c4c 6e3f 22c0 0fbf
-0.16860929 -1.6847134 0.49612266 -0.5421529 1.0043596 0.4409792 -0.25377417 1.4661837
1.1475496 -1.5058373 0.68074816 0.025427343 -1.708745 1.6394371 -1.2014545 -0.84431285
0.111367956 0.16911323 -0.82798314 -0.09346187 -1.4625529 1.2858715 0.33644867 2.0450964
-0.8777185 -1.5515045 1.0525471 -0.06452758 -0.42837206 1.282428 0.532256 -1.3124766
-0.41757402 0.45414668 0.76297456 0.0017318855 -0.08063355 2.6747048 1.6585082 0.033933323
0.62818974 -0.48292714 -0.6583926 -0.88618225 -2.1846836 -0.92863524 -0.33236113 1.0916485
-0.27357137 -1.3686525 0.57215023 2.3855171 -1.0522162 0.85136676 -1.1906193 -0.8204142
-1.5567055 -0.47260815 0.96439886 0.6416305 -0.62592536 1.8149872 0.010256966 -0.13247071
-1.3130974 0.66859293 0.96506613 -1.7430867 -0.054191817 2.1673534 -1.6472775 0.6775503
0.6219619 2.133679 0.8697876 0.37336463 -0.69003314 0.62513345 0.9806018 0.8805278
0.633271 -0.36106762 0.5565066 0.11006353 -1.249178 -1.4674286 -0.1466649 -1.2607915
1.0720471 0.6722298 0.9135734 -0.100106694 -0.76700896 0.8415256 1.1514978 -0.5053661
-0.42915103 1.3267037 0.37848547 1.4741457 -0.05416071 -0.03164862 0.53916407 1.514266
-0.058996376 -0.39925098 0.8158446 -0.4182983 1.0966805 0.18092851 0.14331606 -0.22224298
-0.27423155 -1.0518825 3.0917735 -0.6810491 0.8323803 1.0295849 1.4538391 -0.17658389
0.9637377 -1.1038442 1.8748618 -0.5374882 -0.095117874 0.7803661 1.1729233 0.40332538
0.0048306375 0.30233523 -1.0752355 -0.7708459 0.35805655 -1.7141149 -0.276746 -0.43036905
-0.19976754 -0.34404078 -1.5771582 1.2556136 -1.0361378 0.5712483 0.003772515 -0.5463214
-1.2162218 2.0972936 0.9066507 -0.1360429 -1.527615 -0.9056526 -1.2799833 -0.6467627
-0.9147347 0.5290485 0.17457697 1.0144044 0.16719335 1.1839949 1.2886772 -1.1849074
1.1687673 0.791758 -0.43223754 -1.5867459 0.0023683251 1.2321329 1.2549363 0.40904844
-0.026845964 -0.40430316 0.39327472 0.62605697 -0.005994681 0.20678549 -1.2418511 1.0343592
-1.8136166 0.7654311 0.36385038 5.648117e-05 0.017589545 0.6816323 -1.5616317 0.658142
1.0071748 0.59424424 0.5624732 -0.22433607 -0.1264509 0.85366297 0.26927218 -1.4697964
0.2872896 2.2735643 0.5696169 0.28210545 -0.8791555 1.9426656 1.1341686 0.039554007
0.7235151 1.1999087 -1.7475613 0.5580225 1.7851712 0.13308439 -0.07740278 0.2197832
0.20844555 -1.0177108 0.53097254 -0.52879226 0.5731614 0.12576559 1.8717786 -0.4249219
0.61597353 -0.3296338 0.5563613 0.735045 0.8239271 -2.5716145 -1.5638695 0.46588713
0.36348504 1.6485592 -0.965527 0.5094842 -0.022084434 0.8167901 0.15348947 0.9852071
-0.58198303 -2.1884692 -0.84069145 -0.6032789 2.2235327 -1.2879612 1.2473297 1.3318107
0.6587583 0.39543253 1.2400894 0.93658394 -0.025832133 -0.38173908 0.8893846 0.70196897
-0.8352961 1.2902676 -1.8038297 0.31664494 -0.9029542 1.099751 0.9308498 -0.56152546

tril f4 [32, 32]
00000000: 0000 803f 0000 0000 0000 0000 0000 0000
00000010: 0000 0000 0000 0000 0000 0000 0000 0000
00000020: 0000 0000 0000 0000 0000 0000 0000 0000
00000030: 0000 0000 0000 0000 0000 0000 0000 0000
00000040: 0000 0000 0000 0000 0000 0000 0000 0000
00000050: 0000 0000 0000 0000 0000 0000 0000 0000
00000060: 0000 0000 0000 0000 0000 0000 0000 0000
00000070: 0000 0000 0000 0000 0000 0000 0000 0000
00000080: 0000 803f 0000 803f 0000 0000 0000 0000
00000090: 0000 0000 0000 0000 0000 0000 0000 0000
000000a0: 0000 0000 0000 0000 0000 0000 0000 0000
000000b0: 0000 0000 0000 0000 0000 0000 0000 0000
000000c0: 0000 0000 0000 0000 0000 0000 0000 0000
000000d0: 0000 0000 0000 0000 0000 0000 0000 0000
000000e0: 0000 0000 0000 0000 0000 0000 0000 0000
000000f0: 0000 0000 0000 0000 0000 0000 0000 0000
00000100: 0000 803f 0000 803f 0000 803f 0000 0000
00000110: 0000 0000 0000 0000 0000 0000 0000 0000
00000120: 0000 0000 0000 0000 0000 0000 0000 0000
00000130: 0000 0000 0000 0000 0000 0000 0000 0000
00000140: 0000 0000 0000 0000 0000 0000 0000 0000
00000150: 0000 0000 0000 0000 0000 0000 0000 0000
00000160: 0000 0000 0000 0000 0000 0000 0000 0000
00000170: 0000 0000 0000 0000 0000 0000 0000 0000
00000180: 0000 803f 0000 803f 0000 803f 0000 803f
00000190: 0000 0000 0000 0000 0000 0000 0000 0000
000001a0: 0000 0000 0000 0000 0000 0000 0000 0000
000001b0: 0000 0000 0000 0000 0000 0000 0000 0000
000001c0: 0000 0000 0000 0000 0000 0000 0000 0000
000001d0: 0000 0000 0000 0000 0000 0000 0000 0000
000001e0: 0000 0000 0000 0000 0000 0000 0000 0000
000001f0: 0000 0000 0000 0000 0000 0000 0000 0000
00000200: 0000 803f 0000 803f 0000 803f 0000 803f
00000210: 0000 803f 0000 0000 0000 0000 0000 0000
00000220: 0000 0000 0000 0000 0000 0000 0000 0000
00000230: 0000 0000 0000 0000 0000 0000 0000 0000
00000240: 0000 0000 0000 0000 0000 0000 0000 0000
00000250: 0000 0000 0000 0000 0000 0000 0000 0000
00000260: 0000 0000 0000 0000 0000 0000 0000 0000
00000270: 0000 0000 0000 0000 0000 0000 0000 0000
00000280: 0000 803f 0000 803f 0000 803f 0000 803f
00000290: 0000 803f 0000 803f 0000 0000 0000 0000
000002a0: 0000 0000 0000 0000 0000 0000 0000 0000
000002b0: 0000 0000 0000 0000 0000 0000 0000 0000
000002c0: 0000 0000 0000 0000 0000 0000 0000 0000
000002d0: 0000 0000 0000 0000 0000 0000 0000 0000
000002e0: 0000 0000 0000 0000 0000 0000 0000 0000
000002f0: 0000 0000 0000 0000 0000 0000 0000 0000
00000300: 0000 803f 0000 803f 0000 803f 0000 803f
00000310: 0000 803f 0000 803f 0000 803f 0000 0000
00000320: 0000 0000 0000 0000 0000 0000 0000 0000
00000330: 0000 0000 0000 0000 0000 0000 0000 0000
00000340: 0000 0000 0000 0000 0000 0000 0000 0000
00000350: 0000 0000 0000 0000 0000 0000 0000 0000
00000360: 0000 0000 0000 0000 0000 0000 0000 0000
00000370: 0000 0000 0000 0000 0000 0000 0000 0000
00000380: 0000 803f 0000 803f 0000 803f 0000 803f
00000390: 0000 803f 0000 803f 0000 803f 0000 803f
000003a0: 0000 0000 0000 0000 0000 0000 0000 0000
000003b0: 0000 0000 0000 0000 0000 0000 0000 0000
000003c0: 0000 0000 0000 0000 0000 0000 0000 0000
000003d0: 0000 0000 0000 0000 0000 0000 0000 0000
000003e0: 0000 0000 0000 0000 0000 0000 0000 0000
000003f0: 0000 0000 0000 0000 0000 0000 0000 0000
1.0 0.0 0.0 0.0 0.0 0.0 0.0 0.0
0.0 0.0 0.0 0.0 0.0 0.0 0.0 0.0
0.0 0.0 0.0 0.0 0.0 0.0 0.0 0.0
0.0 0.0 0.0 0.0 0.0 0.0 0.0 0.0
1.0 1.0 0.0 0.0 0.0 0.0 0.0 0.0
0.0 0.0 0.0 0.0 0.0 0.0 0.0 0.0
0.0 0.0 0.0 0.0 0.0 0.0 0.0 0.0
0.0 0.0 0.0 0.0 0.0 0.0 0.0 0.0
1.0 1.0 1.0 0.0 0.0 0.0 0.0 0.0
0.0 0.0 0.0 0.0 0.0 0.0 0.0 0.0
0.0 0.0 0.0 0.0 0.0 0.0 0.0 0.0
0.0 0.0 0.0 0.0 0.0 0.0 0.0 0.0
1.0 1.0 1.0 1.0 0.0 0.0 0.0 0.0
0.0 0.0 0.0 0.0 0.0 0.0 0.0 0.0
0.0 0.0 0.0 0.0 0.0 0.0 0.0 0.0
0.0 0.0 0.0 0.0 0.0 0.0 0.0 0.0
1.0 1.0 1.0 1.0 1.0 0.0 0.0 0.0
0.0 0.0 0.0 0.0 0.0 0.0 0.0 0.0
0.0 0.0 0.0 0.0 0.0 0.0 0.0 0.0
0.0 0.0 0.0 0.0 0.0 0.0 0.0 0.0
1.0 1.0 1.0 1.0 1.0 1.0 0.0 0.0
0.0 0.0 0.0 0.0 0.0 0.0 0.0 0.0
0.0 0.0 0.0 0.0 0.0 0.0 0.0 0.0
0.0 0.0 0.0 0.0 0.0 0.0 0.0 0.0
1.0 1.0 1.0 1.0 1.0 1.0 1.0 0.0
0.0 0.0 0.0 0.0 0.0 0.0 0.0 0.0
0.0 0.0 0.0 0.0 0.0 0.0 0.0 0.0
0.0 0.0 0.0 0.0 0.0 0.0 0.0 0.0
1.0 1.0 1.0 1.0 1.0 1.0 1.0 1.0
0.0 0.0 0.0 0.0 0.0 0.0 0.0 0.0
0.0 0.0 0.0 0.0 0.0 0.0 0.0 0.0
0.0 0.0 0.0 0.0 0.0 0.0 0.0 0.0

weight f4 [16, 64]
00000000: f830 313c 412c 15be f9f4 883d c82f cfbd
00000010: a976 673e ac46 a2bd f686 24be 537f 873d
00000020: ed42 103e eeb9 303e 66b1 b5bd bbd7 bd3c
00000030: 665c 0ebe a161 28bc 874c 96be 1277 3abc
00000040: 1191 56bd 83cf 06bd 5fae 08bd 97cd f73d
00000050: 52f3 d1ba 83d5 993d aef1 a73d 7cbc 99bd
00000060: e4af f33c 118f a7bd 49ee 4ebc 377a eebd
00000070: 46d1 263e 37b6 1d3e f7e3 88bd 3bbe 6f3e
00000080: 9249 113e 27fe 5cbd 2859 1fbd 1303 df3c
00000090: c67a a13d 0a5e 0db9 1d11 3dbe 0c5f 7ebd
000000a0: bae2 20be 2c69 05be 36f4 05be c345 82bd
000000b0: 153e 05be 214c 82bd 6965 6cbd 0b6f b0bd
000000c0: b309 153e 1127 0ebd e953 e23d 6002 093c
000000d0: 44f0 51be 9ddc 733d d7ea b1bc 8f2e 3a3e
000000e0: 5f32 f9bd 2316 13be 8074 03bc 936b 613c
000000f0: 8944 493e d104 95bd 43d9 1ebe 4bcc c0bd
00000100: c3bf 09bd 2448 2dbe 8cd9 8ebd d57d 88bc
00000110: ba31 24be 69d8 e43c 5abf 27be 392c 853c
00000120: 7470 a23d e8a4 3bbd 3364 4bbe 8517 2e3d
00000130: ed22 233e 219f a6bc c92b f1bd 0294 9dbd
00000140: 9b2a 36bd 2799 a03c 722d 503e 8b5c 493d
00000150: 5a47 15bd b00d fe3d 9d49 46be d22d 8b3d
00000160: c520 6fba 1ad3 e8bd 39b4 893d 7932 9abd
00000170: 33c3 933d 93d1 bd3d 96e1 b23d ceca 8bbd
00000180: 900e 9e3c 05e2 423c 4d25 a8bd b0d9 8fbd
00000190: 7d66 2fbe 4427 873d 490f 84bd d5f6 253d
000001a0: b0db 9e3d 449a 32bd 3fbe 31bd b028 3d3e
000001b0: d6d5 f038 cd50 0abe 1d52 2ebe dcad b73d
000001c0: 7c5f 263e 6dcb bcbd 3913 c13c f359 823c
000001d0: 482c 963d b247 cbbd c24b 6fbd 324e f3bd
000001e0: 9bba a0bd 4f98 a63c fecc 46bd 3ec6 cebd
000001f0: e7aa 25bb 5b8b baba 0581 0ebd 97fa 433e
00000200: 14d5 ff3d a39b a8bd 300d 5e3c af61 5b3e
00000210: 0af9 09bc a6cb 58bc 0bb8 023d dc0d eebd
00000220: 9642 3cbe 7c2e 153e 4a81 e8bd a2fc 74bd
00000230: c2f4 473c ec15 673d 1b06 25bd effd da3d
00000240: 98f0 c7bd 66ed 7abc 633a 75bd 3f28 47bd
00000250: 60f0 b7bd 65bf 803c 579d da3d 766c bd3d
00000260: 17a8 4fbd f356 12ba 2e63 893d 76ea a3bc
00000270: 83ea d73d ea63 02bd 642e ac3d 208d ccbc
00000280: 8c8e a33b 697a 513c 99c4 a93d 9875 733d
00000290: 2a16 0fbe a27c 28be 6f87 dd3c 1ef6 89bd
000002a0: 73ec b0bd 846b f23c 1b42 8e3d 0f98 c13d
000002b0: b452 e53d 0dc6 0c3e 3c18 37be f488 243b
000002c0: 048b 143e ed9f 2ebd 78bb 70be 3260 a03b
000002d0: f07c 82bd 1219 b5bc edb7 373e c35b 843e
000002e0: 3987 00be aa34 1dbe a277 f33d 27e6 a8bc
000002f0: c8cc 083e 5586 923d d158 7cbc bc4e a53d
00000300: 06fa 063d ce44 0a3c 7ce3 66be 2ce8 723e
00000310: 22ba fbbd 44af a23d 968a 153d a149 07be
00000320: 4794 3dbe 3867 06be 5074 68bd 9347 89bd
00000330: 49a6 9f3d 731f 7cbd a387 4c3e ddf7 b93c
00000340: 6acf 263d 434c 6f3d 3696 4e3d b3d6 563d
00000350: 95a7 26bc fc4a 823d 2133 e9bc ba98 c5bd
00000360: daba 1abc 0fcd cb3d 3dd1 28bd 366a 783d
00000370: 2c88 bebd c74d 183e f7f7 4b3d 5003 ea3c
00000380: 5a4a 25be 9d33 a1bd ae51 b8bd fd94 11be
00000390: d01f 033c 5dbd 82bd 7945 273d 9eae 38bd
000003a0: 3258 e6bd 0eed 3c3e ded5 f9bc 0eae e23c
000003b0: 9b03 333d 1b9d 07bc 40d9 193e 7030 8ebd
000003c0: d042 2abe 4d35 3ebd 9150 1abd 4238 b9bb
000003d0: 0646 5abd f9dd c13d 18d0 ea3d 5e35 973d
000003e0: d6e0 0e3e 580e 273d 2f96 40bc c588 fbbd
000003f0: 550d 31be 54cc c5bc dcda 233d 95a9 8dbb
0.010814898 -0.14567663 0.0668735 -0.101165354 0.22603859 -0.07923636 -0.16067109 0.06616082
0.1408803 0.17258427 -0.08871727 0.023174157 -0.13902435 -0.010277183 -0.2935526 -0.011380928
-0.05238444 -0.032912742 -0.03336942 0.1209976 -0.001601795 0.07511427 0.082003936 -0.07506654
0.029746957 -0.081815846 -0.012630054 -0.116444044 0.16290769 0.1540154 -0.06684106 0.23412411
0.14188221 -0.053953316 -0.038903385 0.027223146 0.07884745 -0.0001348184 -0.1846356 -0.062102363
-0.1571149 -0.13028401 -0.1308144 -0.06360962 -0.13011964 -0.06362177 -0.0577139 -0.0861493
0.14554481 -0.034705225 0.11051161 0.008362383 -0.2050181 0.059536565 -0.021718426 0.18181823
-0.12167811 -0.14363913 -0.008023381 0.013758558 0.1965505 -0.07276309 -0.15512566 -0.09413966
-0.033630144 -0.1692205 -0.069750875 -0.016661564 -0.16034594 0.027935224 -0.16381589 0.016256439
0.07931605 -0.045811564 -0.19862442 0.0425029 0.15931292 -0.02033955 -0.117759295 -0.07694246
-0.044474225 0.019604279 0.20329836 0.04916052 -0.036445 0.124049544 -0.19364019 0.06795849
-0.00091220095 -0.113683894 0.06723828 -0.07529158 0.07214966 0.09268489 0.08734433 -0.06825791
0.019294053 0.011894708 -0.082102396 -0.070239425 -0.1712894 0.06599286 -0.06448228 0.0405186
0.07756746 -0.04360415 -0.043394323 0.18472552 0.00011483922 -0.13507386 -0.17023511 0.08968708
0.16247362 -0.09218488 0.023568736 0.015912032 0.07332665 -0.09925784 -0.058421858 -0.11880149
-0.07848092 0.020336298 -0.04853534 -0.100964054 -0.0025278868 -0.0014232205 -0.03479101 0.19138561
0.12491813 -0.0823281 0.013552949 0.21423982 -0.008421192 -0.013232147 0.0319138 -0.11623737
-0.18384776 0.14568514 -0.11352785 -0.059811242 0.012204351 0.05641739 -0.040289026 0.10692965
-0.097626865 -0.015315389 -0.059870135 -0.048622366 -0.08981395 0.015716264 0.106745414 0.09249203
-0.050697412 -0.00055824145 0.0670837 -0.02000926 0.105427764 -0.031833567 0.08407286 -0.024969637
0.004991358 0.0127855325 0.08289451 0.059438318 -0.13973299 -0.16453794 0.027042119 -0.06736396
-0.08638849 0.029592283 0.06946202 0.09452831 0.11197415 0.13747425 -0.17880338 0.0025106044
0.14506155 -0.042632986 -0.23509014 0.00489428 -0.06371486 -0.022106681 0.17941256 0.2585126
-0.12551583 -0.15352121 0.118880525 -0.020617558 0.13359368 0.07154528 -0.015402035 0.08071658
0.032953285 0.008439256 -0.22547716 0.23721379 -0.122913614 0.079435855 0.03650912 -0.13211681
-0.18513595 -0.13125312 -0.05675155 -0.06703105 0.07795388 -0.06155343 0.19973616 0.022701198
0.04072515 0.05842234 0.05043622 0.052450847 -0.010171791 0.063619584 -0.028466763 -0.09648271
-0.009443963 0.09951221 -0.04121517 0.060648166 -0.093033165 0.1487342 0.049797025 0.028566033
-0.16141644 -0.078711726 -0.08999954 -0.14216991 0.00800319 -0.063837744 0.04083774 -0.045088403
-0.11247291 0.18449804 -0.030497488 0.027670886 0.04370461 -0.008277203 0.1502428 -0.069428325
-0.1662705 -0.04643755 -0.03767449 -0.0056524584 -0.053289436 0.09466166 0.11465472 0.07383226
0.13952956 0.040785164 -0.011754557 -0.12281946 -0.17290242 -0.024145283 0.040003642 -0.0043231943

weight f4 [16, 64]
00000000: aa02 b33d bd24 6c3a 221d 39be c0bd acbc
00000010: 8f7d 06be 9348 463d 408b f23d 6fad 90bc
00000020: f9a3 23be 27e3 bc3b 4f2f 1f3e 62e3 213e
00000030: e28a c4bc ba9c 813d f141 033e 8bf3 60bd
00000040: 6236 283e a39b 933d 6b1e bfbd 7f3c af3d
00000050: 3414 f83d 8fb8 0abe fc81 79bd 1a24 a83d
00000060: 7e22 2b3d d0b7 013e b8eb 9b3b 068d 09be
00000070: 45b4 9cbc 7d84 1b3d cc33 bc3d 6f59 34be
00000080: 7669 723d dea0 c73b 1709 34bc 57f4 ce3d
00000090: f460 5b3d 9aed dcbd 998e b93d d178 273e
000000a0: 3027 e53d 2519 cf3d fede 27be e332 e9bd
000000b0: 1e0d 123e cbd9 cabd 91a7 2e3d 5e5b f03c
000000c0: c229 e43d 69cf 1c3b 6e92 3dbe 9eed da3c
000000d0: 3be5 293a 99a8 00be 4cbc 373d 167d 88bd
000000e0: 1da8 19be 0776 413e 1fe4 b73b 2f4b 2abe
000000f0: 92e6 8ebd f2a0 a0be 64f2 973d 793d 51be
00000100: f47e 0abd ec5c 913d 2135 183e 0156 093c
00000110: 98cb c7bd 2358 2c3e ed59 c0bd ae43 6d3d
00000120: b9c7 06be b985 933d 2bc3 af3c e783 b13d
00000130: 49c3 713b 5cd4 48bc 7d1e 0bbe a944 5dbe
00000140: 59d2 04bc 1584 9d3c 3b02 8e3c fdb5 01bd
00000150: 9130 d0bd 3847 6e3d de60 b4bd d04a aebd
00000160: 62ea 543e 31b5 e8bd 1474 a1bc 5def 41be
00000170: 5a67 a0bd e59b 28bd 2219 d63d d406 6d3d
00000180: 2bc4 06be eb44 273e 1a57 3d3d 8a12 d53d
00000190: e29e c63d aad5 493d ed60 203b 937d a63a
000001a0: c5b2 09be 0ef2 91bd de56 76bd ed08 023d
000001b0: e7b4 b73d 1dbc ad3d a143 a0bd fcbf a13d
000001c0: 5c5e 393e a65b 83bd 9f6c a8bd 0b2a 0ebe
000001d0: f23a 023d 18ae c33d c79f eabd 1db5 32be
000001e0: 3363 783c 4b35 b63c 20b8 e4bd d793 d23c
000001f0: b227 fabc bafb 163e 8e72 8e3d a737 f33c
00000200: a4f2 46be 6def 123d 3de9 26be 0c7d ab3c
00000210: 899f 9fbd 7ff8 4ebd c705 9e3d 21ab 46bc
00000220: 2955 b7bc 8474 a6bc 9988 2b3e 69af 553e
00000230: f3b1 68bd 4d36 da3d fbe9 06be d25f 463c
00000240: b24a ab3d 84c5 e73d 7c3a 53be c7d8 163e
00000250: 1bcd 60bd 31dd bd3c e06d c1bd 4e57 1e3d
00000260: 9f30 f3bd d193 a5bc 586b a33d 436f bcbb
00000270: 3f0c cd3d ed7f f2bc fcb2 e1bd 7afa 37bd
00000280: 7ac5 123e a90d a9bd f9ce 483d f8c9 073d
00000290: 208f 5f3e 4bc6 9bbc b9cf 8d3d 5df5 153e
000002a0: 4aec 91bd ee66 69bd 0986 84bd 371a afbd
000002b0: 36b1 093d 0384 e3bd 0d34 9d3d e699 2abe
000002c0: 76b6 0e3e 6699 d63d 66b3 243e ebb3 13be
000002d0: 760b 803d 477a 9abd 7c52 bbbd 4610 edbd
000002e0: 4d85 6cbc bb42 ccbd 7b4d 82bd 151d 7a3d
000002f0: bb3f 1c3e c4ba ec3c f633 d8bd 5fd7 9bbd
00000300: 80d5 3abe a215 6abd 0f45 1b3e 452b 583d
00000310: 52b9 963d 8308 05be 9623 693d 2d09 a23c
00000320: 2325 153e 8fe5 17be 858a c5bc 9a79 0f3d
00000330: adb7 0c3d 10e5 15be 54b6 3ebd ceb6 343e
00000340: f84a d8bd 3822 1dbc 24fc abbd 7f4b d1bd
00000350: 3824 ad3d 9661 143d 4b3f dbbd c91f cfbd
00000360: 1cec 27bd 15ba 3fbd 36d4 0f3d 86c2 013e
00000370: cfaf 053e 1006 b13c 75e9 2fbe 66b6 f63d
00000380: 190d 7f3d cd75 f33c 2cca aabd 5157 ba3d
00000390: 2fda 9bbd 4802 c33d cf01 dfbd 6573 ed3d
000003a0: a5a3 20be 7ea0 06be ea95 1b3e 3e42 153d
000003b0: acd7 f23d ba26 a93a d3c8 75bd dc8c 8bbd
000003c0: 7760 edbd 065f ef3d a9c8 793d c81a 08be
000003d0: 1e19 c1bc 130e b53d e9cf da3d b21b edbc
000003e0: 4f20 f6bd 0859 56be b5a6 f53c 81a9 13bd
000003f0: e3e6 08bc 7c2f a63d 3dff 53bd 7af7 0a3c
0.087407425 0.000900816 -0.1807752 -0.021086574 -0.13133834 0.048409056 0.11842966 -0.017660825
-0.1598052 0.0057643834 0.1554539 0.15809396 -0.023992006 0.06328721 0.12818123 -0.05491976
0.16426995 0.0720742 -0.09331974 0.085564606 0.121132284 -0.13546966 -0.06091498 0.08210011
0.04178094 0.12667775 0.0047583245 -0.13432702 -0.019128928 0.037968148 0.09189567 -0.17612241
0.059182607 0.006092175 -0.010988495 0.10105198 0.05355926 -0.107875064 0.090604015 0.16354682
0.11189115 0.10112218 -0.16393659 -0.11386659 0.14262816 -0.09904822 0.042640273 0.029340442
0.11140777 0.0023927337 -0.1851289 0.026724633 0.00064809964 -0.12564315 0.04485731 -0.06664483
-0.15005536 0.1889268 0.005611911 -0.16630243 -0.069775715 -0.31372792 0.07419279 -0.20433606
-0.03381248 0.070978016 0.14864017 0.008382321 -0.09755629 0.16830496 -0.09392152 0.057925873
-0.13162126 0.0720324 0.021455368 0.086677365 0.003689008 -0.012257662 -0.13585849 -0.21608223
-0.008106791 0.01922802 0.017335048 -0.0316677 -0.10165513 0.05817339 -0.088075384 -0.08510363
0.20792535 -0.113626845 -0.01970867 -0.18938966 -0.07832213 -0.041164298 0.104540125 0.05786784
-0.1316077 0.16334884 0.046225645 0.10403927 0.09698273 0.04927603 0.0024471835 0.0012702219
-0.13447101 -0.071262464 -0.060141437 0.031746794 0.08970051 0.084831454 -0.07825399 0.07897946
0.18102401 -0.06413965 -0.08223843 -0.13883226 0.031794496 0.0955469 -0.11456256 -0.17451902
0.01516037 0.022242209 -0.111679316 0.025705261 -0.030536506 0.14744464 0.06955443 0.029689623
-0.19428498 0.035872865 -0.16299911 0.02093365 -0.07794101 -0.050529953 0.07715946 -0.012125761
-0.022379475 -0.02031923 0.16751327 0.20867695 -0.05681033 0.10654888 -0.13175194 0.012107806
0.083638564 0.1131697 -0.20627779 0.14731131 -0.054883104 0.023176761 -0.09444785 0.03865748
-0.11874508 -0.020212086 0.079794586 -0.005750568 0.100121014 -0.029602015 -0.11020467 -0.044916607
0.14333144 -0.082545586 0.04902551 0.033151597 0.21831942 -0.019015452 0.069243856 0.1464438
-0.07125147 -0.056982927 -0.06470878 -0.08549922 0.033616267 -0.111091636 0.076759435 -0.1666027
0.13936791 0.10478477 0.1608406 -0.14424102 0.06252186 -0.07542854 -0.09146592 -0.115753695
-0.014436078 -0.09973665 -0.063624345 0.06106289 0.15258686 0.02889765 -0.10556786 -0.07609438
-0.18245506 -0.057149537 0.15163063 0.05277564 0.07359566 -0.12991528 0.056918703 0.019779766
0.14564948 -0.14833663 -0.024113903 0.035028078 0.034354854 -0.14638162 -0.0465606 0.1764786
-0.10561174 -0.009590678 -0.083977014 -0.10219478 0.08454174 0.036225878 -0.107054316 -0.101134844
-0.040996656 -0.04680832 0.03511449 0.12671861 0.13055347 0.021609336 -0.171789 0.120465085
0.06226835 0.029719258 -0.083393425 0.090986855 -0.076099746 0.095219195 -0.10889017 0.115942754
-0.15687425 -0.1314716 0.15193906 0.036440127 0.118575424 0.0012905218 -0.060005974 -0.06813976
-0.11590665 0.11688046 0.06098238 -0.13291466 -0.023571547 0.08840575 0.10684187 -0.02894387
-0.12017881 -0.209324 0.029986719 -0.036050323 -0.008355829 0.08114526 -0.051757086 0.008481855

weight f4 [16, 64]
00000000: a99d 013e b190 03be 1bd9 d8bc 304c 9dbd
00000010: 8b84 f4bc 6fb4 32bc 1c62 483c 3d53 423d
00000020: 2779 fbbc 2059 c9bd 11b9 8c3d d830 df3d
00000030: 460b d83c 027b 2ebd 3e53 b23d 6c95 cebd
00000040: b361 fb3b 552a 053e c58d 433d 609a c93d
00000050: 1389 b63c 7155 8e3d 9f6e bf3d 5270 22bd
00000060: ea1e b73d 7828 833d 37e7 fe3d ee17 e73d
00000070: ca40 b73c e550 1a3e 05b7 09bd d76a 453d
00000080: d129 dbbd d7ee fb3d 5120 13be 5ded a43d
00000090: 6fd4 3d3e 08dd 2b3d 5463 06be 31f3 24bd
000000a0: 231e ca3c e2c6 26bd 97c5 1f3c 277e d23d
000000b0: 3a9c 8cbd 7364 a1bd dd5e 4f3c 0823 f8bd
000000c0: 429f 5ebd 966a c43d a2a3 a43c 3993 ab3b
000000d0: ffad 78bc 0ca9 653c 336a 893d b3d9 18be
000000e0: 51cf 553d 1455 fe3d 9632 033e a460 a93d
000000f0: 5cf8 ad3c 0af5 e9bc 9192 1b3e ca94 e63b
00000100: 95eb b4bd 34a0 82bb bcb9 a83d 10a1 65bd
00000110: 6464 7f3d 4958 5e3d 15db 03bd 5920 a73d
00000120: 4d21 78bd 0b9e cd3d 7802 30bc f38d 713d
00000130: c05b 94bd 3bea 043d 04dd a6bc 53d0 7abd
00000140: 9e86 4b3d 04e7 0b3e 8be2 a03d fe23 babd
00000150: cddf 02bd 096e 1b3c 952c 66bd c7f5 bfbd
00000160: e59f ee3b 6660 bf3c 411f ef3c a1e7 f73b
00000170: eb58 9b3d d52e 4a3c c130 ad3d b45c d1bd
00000180: 2a8b bc3d 07f3 c63c 3e01 913d f5df cdbd
00000190: 2245 01bd 54d3 d63d ea48 913d 3fbd 623d
000001a0: 2d59 66bc 5e5a cc3d 2010 8dbd db17 93bd
000001b0: 8a17 8b3b c601 f8bd 3863 75bd 0abf 59bd
000001c0: 861b 27be 825c 27bc b28f 983d 6573 50bc
000001d0: 9635 003e 4687 91bd aa66 1dbd 0d32 ad3d
000001e0: 37e8 4fbe 27ea 98bd a11f 47bd 571e e2bc
000001f0: 6ef4 84bb 8fdc 2e3c 5062 0bbe 410a b03c
00000200: ea59 d1bd 9ee1 623d 9289 22bb 42a3 8ebd
00000210: eae6 4abe 989b 853d d2fa b2bd 8917 eb3d
00000220: 94b0 563d 281f d5bd 5b27 2b3d 83b3 59bd
00000230: 2cc9 ffbd c46e 8dbc 595e 293d 5e3c 7d3d
00000240: e498 a2bd 8c4d 92bb b11b b2bc 899b 283d
00000250: 69a3 9f3d 5cfa 55bc 402a d33c 660c 1b3e
00000260: 08b9 553d fe01 aabc 86ee e23d 9d40 f4bd
00000270: 0b9f 61bd 6459 edbb d686 2d3d c8c8 2b3c
00000280: 7bc6 fbbd f71b d63d 0fd3 953d 6cba 09be
00000290: 023b 2cbc 2f3b 873c 9ee5 423c b605 7fbb
000002a0: ddf0 a23b 6b69 14be 8da1 e23d f8b2 6e3d
000002b0: d10a ef3d eac8 103e 72d9 c4bd d7e8 0f3d
000002c0: da21 0ebe 0cd3 c33d eef9 c4bd 30c7 e53d
000002d0: b83f b1bc 5111 38bd 86ea 183d e77e d63d
000002e0: 9568 503d 5211 2bbd 727b f63d f40d fc3d
000002f0: 413b d63d 8bc5 863d 12c8 c3bc f7bf f83d
00000300: 2246 8bbd 832e 54bd e537 bd3d 6b1d 40bd
00000310: 6b2c 3c3e 2489 8fbc 2285 dcbd 838d 62bd
00000320: 633d 52bd e2a1 1ebe a7ac c6bd df60 38be
00000330: a81f 15bd 339f 28bd 92fd 90bc 8e6a b23d
00000340: e0c8 88bd 4a8a dcbc 6b60 23be f6a5 1e3e
00000350: e8ac e3bc 6ccd 75bd 39d3 b8bd 98a8 4c3d
00000360: 7482 ec3d b5c9 db3d e013 b53c b8a9 3e3e
00000370: e99f 83bc 4eb3 16bd 3fd1 3e3c f8bc 92bd
00000380: 26ac 3ebe 516d 7e3d 4c83 95bd 97cb a33d
00000390: 8262 19bd 9a10 11be ccf2 ecbd b250 acbd
000003a0: a458 183d d30d 21bd f7c7 cbbd 24d1 8d3d
000003b0: 6d28 cc3d 9c38 d43d 0e32 1cbd ba8b 96bd
000003c0: 2fff 8dbd 46f3 ce3c c859 b9bd a7d4 88bd
000003d0: 7e5c 6a3d 82f6 b739 08ed 063d b4be 6fbc
000003e0: e7b0 1e3d 1a93 82bd 7ef7 b83b b458 de3d
000003f0: dcac a13d 94df 0ebe 7646 053d 2eed ee3a
0.12657799 -0.12848164 -0.026470711 -0.07680547 -0.029848358 -0.0109072765 0.012230422 0.047442663
-0.030697418 -0.09831452 0.06871236 0.10897988 0.026372563 -0.04259778 0.087072834 -0.10087094
0.0076715588 0.1300443 0.047742624 0.09843898 0.022282159 0.069498904 0.09347271 -0.0396579
0.08941443 0.06404203 0.124464445 0.11283861 0.022369761 0.15069921 -0.033621807 0.048197594
-0.10701335 0.123014145 -0.14367796 0.08053086 0.18538068 0.04195884 -0.13123828 -0.040270988
0.024672573 -0.040717013 0.009751699 0.10277968 -0.06865735 -0.07880487 0.0126568945 -0.12116057
-0.0543511 0.09590642 0.020097557 0.005236056 -0.015178203 0.014017355 0.06709709 -0.14926796
0.052199665 0.12418571 0.12812266 0.08270386 0.021236591 -0.028559227 0.1519263 0.00703678
-0.08833996 -0.003986383 0.08238551 -0.056061804 0.0623516 0.054283414 -0.032191355 0.08160467
-0.060578633 0.1003991 -0.010742776 0.058973264 -0.072440624 0.032449942 -0.02036906 -0.06123383
0.049688928 0.13662344 0.0785571 -0.09088896 -0.031951714 0.009486684 -0.05619486 -0.0937305
0.0072822445 0.023361396 0.029189708 0.007565454 0.07585319 0.012340267 0.08456565 -0.1022276
0.09206231 0.024285806 0.07080315 -0.10052482 -0.03156007 0.104895264 0.070939854 0.05535626
-0.014059347 0.09978174 -0.06887841 -0.071822844 0.0042447494 -0.12109713 -0.059909075 -0.053160705
-0.16319093 -0.010214927 0.07449283 -0.012722825 0.12520441 -0.071058795 -0.038427986 0.08456812
-0.20303427 -0.07466536 -0.048614148 -0.027602358 -0.0040574586 0.010672702 -0.13611722 0.021489264
-0.10222228 0.055390947 -0.0024801237 -0.06964733 -0.19814649 0.06523818 -0.087392464 0.11479098
0.05241449 -0.10406333 0.04178558 -0.05314971 -0.12489542 -0.017264731 0.041349743 0.06182515
-0.07939318 -0.0044648107 -0.02174172 0.041163955 0.0779484 -0.013060179 0.025776982 0.15141448
0.052178413 -0.020752903 0.11080651 -0.119263865 -0.055083316 -0.007243322 0.042364918 0.010484882
-0.122937165 0.104545526 0.07315647 -0.1345002 -0.010512115 0.016507713 0.011895565 -0.0038913316
0.004972561 -0.14493339 0.110659696 0.058276147 0.11671985 0.14139143 -0.09611787 0.035134163
-0.13880101 0.09561738 -0.09617983 0.112196326 -0.021636829 -0.04493839 0.037333034 0.104734235
0.050880987 -0.041764565 0.12035264 0.12307349 0.104605205 0.06580647 -0.023899112 0.121459894
-0.06800486 -0.05180217 0.09239177 -0.046903055 0.18376319 -0.017521448 -0.107675806 -0.055310737
-0.051328074 -0.15491441 -0.097008996 -0.18005703 -0.036407143 -0.04116745 -0.017699037 0.0871173
-0.06678939 -0.02692141 -0.1595475 0.15492997 -0.027792409 -0.06001036 -0.090246625 0.04996547
0.115483195 0.10731832 0.022104204 0.1861943 -0.016067462 -0.036792092 0.011646568 -0.07164949
-0.18620357 0.06211597 -0.073004335 0.07997816 -0.03744746 -0.14166489 -0.11569747 -0.08413829
0.03719391 -0.039319824 -0.0995025 0.06924656 0.09968648 0.1036236 -0.038133673 -0.073508695
-0.06933438 0.025262486 -0.090503275 -0.06681185 0.057217114 0.00035088143 0.032940894 -0.0146328695
0.038742926 -0.06375714 0.0056447377 0.108567625 0.078942984 -0.13952476 0.0325379 0.0018228644

tril f4 [32, 32]
00000000: 0000 803f 0000 0000 0000 0000 0000 0000
00000010: 0000 0000 0000 0000 0000 0000 0000 0000
00000020: 0000 0000 0000 0000 0000 0000 0000 0000
00000030: 0000 0000 0000 0000 0000 0000 0000 0000
00000040: 0000 0000 0000 0000 0000 0000 0000 0000
00000050: 0000 0000 0000 0000 0000 0000 0000 0000
00000060: 0000 0000 0000 0000 0000 0000 0000 0000
00000070: 0000 0000 0000 0000 0000 0000 0000 0000
00000080: 0000 803f 0000 803f 0000 0000 0000 0000
00000090: 0000 0000 0000 0000 0000 0000 0000 0000
000000a0: 0000 0000 0000 0000 0000 0000 0000 0000
000000b0: 0000 0000 0000 0000 0000 0000 0000 0000
000000c0: 0000 0000 0000 0000 0000 0000 0000 0000
000000d0: 0000 0000 0000 0000 0000 0000 0000 0000
000000e0: 0000 0000 0000 0000 0000 0000 0000 0000
000000f0: 0000 0000 0000 0000 0000 0000 0000 0000
00000100: 0000 803f 0000 803f 0000 803f 0000 0000
00000110: 0000 0000 0000 0000 0000 0000 0000 0000
00000120: 0000 0000 0000 0000 0000 0000 0000 0000
00000130: 0000 0000 0000 0000 0000 0000 0000 0000
00000140: 0000 0000 0000 0000 0000 0000 0000 0000
00000150: 0000 0000 0000 0000 0000 0000 0000 0000
00000160: 0000 0000 0000 0000 0000 0000 0000 0000
00000170: 0000 0000 0000 0000 0000 0000 0000 0000
00000180: 0000 803f 0000 803f 0000 803f 0000 803f
00000190: 0000 0000 0000 0000 0000 0000 0000 0000
000001a0: 0000 0000 0000 0000 0000 0000 0000 0000
000001b0: 0000 0000 0000 0000 0000 0000 0000 0000
000001c0: 0000 0000 0000 0000 0000 0000 0000 0000
000001d0: 0000 0000 0000 0000 0000 0000 0000 0000
000001e0: 0000 0000 0000 0000 0000 0000 0000 0000
000001f0: 0000 0000 0000 0000 0000 0000 0000 0000
00000200: 0000 803f 0000 803f 0000 803f 0000 803f
00000210: 0000 803f 0000 0000 0000 0000 0000 0000
00000220: 0000 0000 0000 0000 0000 0000 0000 0000
00000230: 0000 0000 0000 0000 0000 0000 0000 0000
00000240: 0000 0000 0000 0000 0000 0000 0000 0000
00000250: 0000 0000 0000 0000 0000 0000 0000 0000
00000260: 0000 0000 0000 0000 0000 0000 0000 0000
00000270: 0000 0000 0000 0000 0000 0000 0000 0000
00000280: 0000 803f 0000 803f 0000 803f 0000 803f
00000290: 0000 803f 0000 803f 0000 0000 0000 0000
000002a0: 0000 0000 0000 0000 0000 0000 0000 0000
000002b0: 0000 0000 0000 0000 0000 0000 0000 0000
000002c0: 0000 0000 0000 0000 0000 0000 0000 0000
000002d0: 0000 0000 0000 0000 0000 0000 0000 0000
000002e0: 0000 0000 0000 0000 0000 0000 0000 0000
000002f0: 0000 0000 0000 0000 0000 0000 0000 0000
00000300: 0000 803f 0000 803f 0000 803f 0000 803f
00000310: 0000 803f 0000 803f 0000 803f 0000 0000
00000320: 0000 0000 0000 0000 0000 0000 0000 0000
00000330: 0000 0000 0000 0000 0000 0000 0000 0000
00000340: 0000 0000 0000 0000 0000 0000 0000 0000
00000350: 0000 0000 0000 0000 0000 0000 0000 0000
00000360: 0000 0000 0000 0000 0000 0000 0000 0000
00000370: 0000 0000 0000 0000 0000 0000 0000 0000
00000380: 0000 803f 0000 803f 0000 803f 0000 803f
00000390: 0000 803f 0000 803f 0000 803f 0000 803f
000003a0: 0000 0000 0000 0000 0000 0000 0000 0000
000003b0: 0000 0000 0000 0000 0000 0000 0000 0000
000003c0: 0000 0000 0000 0000 0000 0000 0000 0000
000003d0: 0000 0000 0000 0000 0000 0000 0000 0000
000003e0: 0000 0000 0000 0000 0000 0000 0000 0000
000003f0: 0000 0000 0000 0000 0000 0000 0000 0000
1.0 0.0 0.0 0.0 0.0 0.0 0.0 0.0
0.0 0.0 0.0 0.0 0.0 0.0 0.0 0.0
0.0 0.0 0.0 0.0 0.0 0.0 0.0 0.0
0.0 0.0 0.0 0.0 0.0 0.0 0.0 0.0
1.0 1.0 0.0 0.0 0.0 0.0 0.0 0.0
0.0 0.0 0.0 0.0 0.0 0.0 0.0 0.0
0.0 0.0 0.0 0.0 0.0 0.0 0.0 0.0
0.0 0.0 0.0 0.0 0.0 0.0 0.0 0.0
1.0 1.0 1.0 0.0 0.0 0.0 0.0 0.0
0.0 0.0 0.0 0.0 0.0 0.0 0.0 0.0
0.0 0.0 0.0 0.0 0.0 0.0 0.0 0.0
0.0 0.0 0.0 0.0 0.0 0.0 0.0 0.0
1.0 1.0 1.0 1.0 0.0 0.0 0.0 0.0
0.0 0.0 0.0 0.0 0.0 0.0 0.0 0.0
0.0 0.0 0.0 0.0 0.0 0.0 0.0 0.0
0.0 0.0 0.0 0.0 0.0 0.0 0.0 0.0
1.0 1.0 1.0 1.0 1.0 0.0 0.0 0.0
0.0 0.0 0.0 0.0 0.0 0.0 0.0 0.0
0.0 0.0 0.0 0.0 0.0 0.0 0.0 0.0
0.0 0.0 0.0 0.0 0.0 0.0 0.0 0.0
1.0 1.0 1.0 1.0 1.0 1.0 0.0 0.0
0.0 0.0 0.0 0.0 0.0 0.0 0.0 0.0
0.0 0.0 0.0 0.0 0.0 0.0 0.0 0.0
0.0 0.0 0.0 0.0 0.0 0.0 0.0 0.0
1.0 1.0 1.0 1.0 1.0 1.0 1.0 0.0
0.0 0.0 0.0 0.0 0.0 0.0 0.0 0.0
0.0 0.0 0.0 0.0 0.0 0.0 0.0 0.0
0.0 0.0 0.0 0.0 0.0 0.0 0.0 0.0
1.0 1.0 1.0 1.0 1.0 1.0 1.0 1.0
0.0 0.0 0.0 0.0 0.0 0.0 0.0 0.0
0.0 0.0 0.0 0.0 0.0 0.0 0.0 0.0
0.0 0.0 0.0 0.0 0.0 0.0 0.0 0.0

weight f4 [16, 64]
00000000: 5f50 c6bd f8f4 453e 7865 26be a7b4 5b3c
00000010: c413 86bd 189d 09bd d19f cd3d 79be 7dbd
00000020: 5630 f8bc d769 713d 65cb 033e e54c 8f3d
00000030: 04a2 51be cca4 f4bd 9c67 483d 70f5 0b3c
00000040: 5774 d4bd e266 883d 68a5 b6bd a1b6 9dbc
00000050: 622b 933c a67a 38be ac0a 03be 8ddf 783c
00000060: df0b 443c 3e58 9abb 4945 6a3b 0dc0 dabd
00000070: 47c3 a83d 7cdc ba3d 1126 8c3d dce3 8e3b
00000080: f71d f9bc 32a0 d93d 6e29 6f3d 704f bfbd
00000090: 2a8d 373e 5bf9 f63d e412 033e 7284 58be
000000a0: 0af8 a53d 4ca7 2dbc dd96 f93c 03fa 7d3d
000000b0: 8741 8e3e 495c 39be 1daa 18bc 6426 423c
000000c0: 628f 3dbd 53db b1bd a3c1 ecbc 27e0 8e3d
000000d0: c4a0 8dbd 9b02 efbb 0ef7 c53d 16dd 8d3d
000000e0: 5532 5fba d076 e93d bbd5 cebd d792 9d3d
000000f0: 59ba cdbd 0dcb 9b3d fa9b 41be 1650 e53c
00000100: 63e1 3fbd fd1d 073e 4a22 743d cef9 e6bc
00000110: 1f9b 2d3e fafe dd3d a3df 5fbd 2098 3cbd
00000120: 0fea 543d 28f2 1dbc f1b8 84bd 38e3 5f3e
00000130: 59a3 a5bd 01eb dbbd ffa5 0038 87dc ecbd
00000140: 4e73 193c ea8e c13c 98a1 02be a7d0 cfbd
00000150: 62fd d63c 9fde 2abd 103f 023d d631 d1bc
00000160: cb0a fd3c da4d cc3c 699f 223e 77b5 cd3c
00000170: 1a77 1a3c df25 13be 27cd 00be 808e eebc
00000180: 0f6f 8d3d 5333 f63c a34f 63bd 691b 313d
00000190: e951 e53d 4279 49bc 4ada fdbc 4784 35bc
000001a0: 5855 6dbd a611 04bd c9af 873d a384 643d
000001b0: ccb2 123b 4757 e03c 3a59 063e c083 4bbc
000001c0: 179a 46bd 78ec c3bd ec36 833d 028a 253e
000001d0: ad23 2e3e ad05 ac3d 3b99 193e be22 d1bc
000001e0: 17c1 c6bd 8342 383d 41c5 8fbd d6ee d6bd
000001f0: c2fd debb 73ac 99bd 830c 703d 2568 fb3d
00000200: bd71 4d3d fcc0 d43d 1b4d 32be 7465 d83d
00000210: 8963 89bd df7b 20bc 4b60 ce3d 1bec c2bc
00000220: 7646 82bc 807a 36bd 9850 fa3c ce8b 143d
00000230: 1ada 7a3d c1ac 143d e625 a63d a411 213e
00000240: 3e3a e43d edd3 2bbd 223f cebc 3828 a1bd
00000250: 1f69 ae3d be8c 203e f845 293e 1a35 18bd
00000260: 2d83 10be f8af 4d3d a389 64bd 2469 0ebe
00000270: 6659 fb3d 8302 4fbd 3dbf d6bd d269 2d3d
00000280: a7d6 fdbb 1d68 43bd 26c2 42bd fd9f 233e
00000290: 4ef5 013e 6dfb 85bd a03b 06bd 85b4 253d
000002a0: b3e7 35bd 9bc1 e13d 4e9e df3d a788 353d
000002b0: 2c1e f0ba 1fef 273d a066 c2bd df36 e0bd
000002c0: 32c1 60bd b375 103d c224 8bbd 428d 943b
000002d0: c6ee 4bbd a948 adbd 6da4 abbd 4458 813e
000002e0: 503a 11be c5cc 013c 8bcb 553d d937 c6bd
000002f0: 9cb1 a03d 34ae 0e3e 1027 a23d bd73 fcbc
00000300: 8234 1f3d a31d 353d 23dd 233e c7a2 65bd
00000310: 1714 563d f4a8 f5bb f5a1 2a3d ab71 30bd
00000320: efc2 28be 919c 41bd c6f1 5abd a37c 41bd
00000330: 5dbd b4bc c4c5 033c ef34 713d 3c8e 14be
00000340: e498 ab3d 5c8c f7b9 392e 453b 32fb e33c
00000350: 8a92 c7bd 9607 a7bd aa99 32bc ae0b 0f3c
00000360: 84e6 5d3d ca98 ebbd 7466 21bd 1a90 adbd
00000370: 853e 08be 30d9 f23d 7864 0abe 9b65 4abd
00000380: 7ba0 773c be28 923d 1a62 86bd 5a84 9fbd
00000390: fa2c 28bc bbeb 68bd 53bc 023e 1cb8 0e3e
000003a0: ea54 d5bc 1645 28bb fe19 e5bd 3585 0bbe
000003b0: 1e13 4abd 56d7 75bc 036a 0abe 92e3 663c
000003c0: 5a9d 5e3e 1da2 10bc eeed 0cbd 16e7 52bc
000003d0: e018 023b 9e86 943d 9259 81bd 32cc 7a3b
000003e0: fd73 843d 37ec 80bd b8eb ee3d 122b 163c
000003f0: e3c8 133d 61fe 01bd 9ee1 1dbd c523 5d3d
-0.09683298 0.1933173 -0.16249645 0.01340977 -0.06546739 -0.033597082 0.10040248 -0.061949227
-0.030296486 0.058938827 0.12870558 0.06997088 -0.2047196 -0.11945495 0.048926935 0.008542404
-0.103737526 0.06660248 -0.089182675 -0.019252123 0.017965022 -0.18015537 -0.1279704 0.015190017
0.011965721 -0.0047102263 0.0035746864 -0.10681162 0.08240371 0.09124085 0.06843198 0.004360659
-0.030409796 0.10626258 0.05838912 -0.093413234 0.17924944 0.120592795 0.12800175 -0.21144274
0.0810395 -0.010598969 0.030467445 0.062006008 0.27784368 -0.1810161 -0.009317902 0.011849973
-0.04627932 -0.08684411 -0.028900927 0.069763474 -0.06915429 -0.007294012 0.096662626 0.069269344
-0.0008514275 0.11399615 -0.100993596 0.07694023 -0.100453086 0.07607088 -0.18907157 0.02799229
-0.046845805 0.13195033 0.059603013 -0.028195288 0.16953705 0.108396485 -0.054656636 -0.046043515
0.05198103 -0.009640254 -0.06480587 0.21864021 -0.08087797 -0.10738183 3.0672174e-05 -0.115655
0.00936587 0.023627717 -0.12756956 -0.10147219 0.02624387 -0.041716214 0.031798422 -0.025536459
0.030888936 0.024939466 0.15881123 0.025110943 0.00942781 -0.14369915 -0.1257826 -0.029120684
0.06905948 0.03005377 -0.05549587 0.04323903 0.11197264 -0.0122969765 -0.030987877 -0.011078901
-0.05794272 -0.032243393 0.06625325 0.055790555 0.0022384403 0.027385367 0.13119975 -0.012421548
-0.048486795 -0.09566587 0.0640696 0.16165927 0.17005797 0.0839952 0.14999859 -0.025529262
-0.09704798 0.044985306 -0.07020045 -0.10494773 -0.0068051526 -0.07503595 0.058605682 0.12275723
0.050157297 0.10388371 -0.17412226 0.10566226 -0.06708438 -0.009795158 0.1007696 -0.023794224
-0.015902739 -0.04455042 0.030556008 0.03626614 0.061243154 0.036297563 0.08112697 0.15729386
0.11143921 -0.041950155 -0.025176588 -0.07868999 0.08516144 0.15678689 0.16530597 -0.037160017
-0.1411254 0.050216645 -0.055795323 -0.13907295 0.12272911 -0.050539505 -0.104856946 0.042337246
-0.007746536 -0.047706712 -0.047548436 0.15979 0.12691233 -0.06542096 -0.032771707 0.04045536
-0.04441042 0.110232554 0.10918866 0.044319775 -0.0018319539 0.040999528 -0.094922304 -0.10947966
-0.054871745 0.035268497 -0.0679412 0.004533441 -0.04978826 -0.084611244 -0.08380971 0.25262654
-0.141824 0.007922356 0.052196067 -0.09678621 0.07846376 0.1393364 0.07917607 -0.030816907
0.038868435 0.044217717 0.16002326 -0.05606344 0.052265253 -0.0074969474 0.04165836 -0.043077152
-0.16480611 -0.047268454 -0.05345323 -0.047238003 -0.022062952 0.0080427565 0.058888372 -0.14507383
0.08378771 -0.00047216087 0.0030087365 0.02782974 -0.09744747 -0.08155744 -0.010900894 0.008730812
0.054174915 -0.115037516 -0.039404348 -0.08474751 -0.133051 0.118578315 -0.13514888 -0.049413305
0.015113945 0.07136677 -0.0656168 -0.07788916 -0.0102646295 -0.056865435 0.12767152 0.1393742
-0.026041467 -0.0025675944 -0.11186598 -0.13625033 -0.049334638 -0.015004953 -0.13517003 0.014092343
0.21739712 -0.008827713 -0.034406595 -0.012872478 0.0019851252 0.07252239 -0.06315912 0.0038268683
0.064674355 -0.062950544 0.116660535 0.009165542 0.036080252 -0.031736735 -0.038545243 0.05398919
