KYTICE/10x KYTICE/10x kytice.pth (torch, 975660 bytes, 110 tensors)

weight f4 [76, 64]
000000 b4 dc 83 3e 0f 61 0f bc 11 a3 ce be 39 ab 64 bf
       0.2575432 -0.008751168 -0.40358785 -0.89323765
000010 44 18 23 3f d5 ff d6 3d 65 18 66 3f 34 19 07 3c
       0.637089 0.10498015 0.89880973 0.008245755
000020 53 7b b9 3e 99 8c 98 3f fb e6 b7 bf 78 68 e8 be
       0.362269 1.1917907 -1.4367365 -0.45392203
000030 30 76 82 3e 36 f6 2a be 55 7a 62 bf b5 64 c8 3f
       0.25480795 -0.16695485 -0.88467914 1.5655733
000040 4d 91 b6 3f 91 62 45 be 06 19 b4 3e 15 40 80 3f
       1.4263092 -0.19275881 0.3517534 1.0019556
000050 99 69 07 c0 c3 96 d1 3e 9a 40 c2 3f 4c 77 21 3f
       -2.1158202 0.40935335 1.5175965 0.6307266
000060 77 53 22 3e b2 ee cf bf 19 e1 96 bf 00 4a af be
       0.15852152 -1.6244719 -1.1787444 -0.34236145
000070 e0 2c c8 3e 80 77 59 bf b2 e7 c0 3f 10 05 23 40
       0.39096737 -0.8494797 1.5070708 2.547184
000080 7c 85 2e bf 8e 99 9c be 23 99 83 3f 1f 80 c1 3d
       -0.6817243 -0.30585903 1.0281109 0.09448265
000090 29 7c 32 3e bc e2 8c 3f 60 b0 8e bf f3 1b b0 be
       0.17430176 1.1006694 -1.1147575 -0.34396324
0000a0 59 90 fc be e8 24 7c bf f7 c1 1c 3f 10 79 bd bf
       -0.4932888 -0.98493814 0.61233467 -1.480257
0000b0 0d 69 a3 bf 32 55 20 3f 87 c5 13 bf cc 1e 3e bf
       -1.2766434 0.6263 -0.5772328 -0.7426574
0000c0 4d 35 dd 3f b9 14 5c bf d3 63 b5 3f 26 e2 9a be
       1.7281891 -0.8596912 1.4171089 -0.30250663
0000d0 4f d2 c6 bf a1 c4 05 40 e7 95 33 40 d4 67 dd bf
       -1.5532931 2.0901263 2.8060243 -1.7297311
0000e0 ff 06 b8 3f e2 83 be bf 63 21 51 3f 77 b0 97 be
       1.4377135 -1.4883997 0.8169157 -0.2962682
0000f0 e5 6e 39 3f 9d 28 c7 3f 64 92 cb 3f 61 a0 d9 be
       0.72434837 1.5559269 1.590405 -0.42505172
000100 5d a7 45 bf 26 b8 13 3f 67 af d8 bd 42 a5 e6 bd
       -0.772085 0.57702863 -0.1058033 -0.11261989
000110 b6 78 00 bf 13 1d 06 3f 9b 21 7d be 5e ba 87 bf
       -0.5018419 0.52388114 -0.2471985 -1.060375
000120 26 b6 05 40 a0 74 0d bf e6 32 6b 3e 8e 1a 2c 3f
       2.0892425 -0.5525608 0.22968635 0.6722802
000130 5e f5 bd bf 1b d5 7b 3f 57 d1 2a 3e 39 cc 62 3e
       -1.4840505 0.9837205 0.1668142 0.22148217
000140 80 c0 23 40 38 4e a0 bf b5 ab 89 3f d6 6f 00 3f
       2.5586243 -1.252387 1.0755526 0.5017065
000150 07 8f d2 bf f3 c6 a0 bf c1 3f 3b 3f 56 74 38 be
       -1.6449898 -1.2560714 0.73144156 -0.18013129
000160 8a 36 bd 3e 5b da c1 be 7d 6e f6 3e 20 5f 38 bf
       0.36955673 -0.37861905 0.4813117 -0.7202015
000170 a4 4c d2 be 5b 38 f0 be 72 e3 87 bf 6b ae ae be
       -0.41074097 -0.46917996 -1.0616286 -0.34117445
000180 70 7d de bf 7d 4c b4 bf ca 09 3b be a1 74 80 3f
       -1.738203 -1.4085842 -0.18265453 1.0035592
000190 22 46 22 3d 13 4a 49 bf e7 f9 93 be 3a 2d 9f 3c
       0.039617665 -0.78628653 -0.28901598 0.019430745
0001a0 a2 b8 83 be 91 92 1e be be 4d a9 3e e6 42 af 3f
       -0.257268 -0.15485598 0.33067125 1.3692291
0001b0 46 89 99 3d c4 f5 26 40 c3 d5 1c bf 09 fa 01 c0
       0.07496886 2.6087503 -0.61263674 -2.030886
0001c0 6c 59 92 be ed c6 e0 bb ad af 78 3f 37 99 f0 bf
       -0.28583848 -0.0068596513 0.9714306 -1.8796757
0001d0 b9 56 42 3e 0e 9e e3 3e 5b 4e df bf 43 b0 21 3f
       0.18978395 0.44456524 -1.7445787 0.6315958
0001e0 f0 03 e5 3f d9 e7 8c 3e 2d e2 86 3e 45 b8 36 bf
       1.7891827 0.27520636 0.26344433 -0.71374923
0001f0 90 dd 3c bf ad 51 a8 3e 6a ed 0e bf fb 48 c3 bf
       -0.7377558 0.32874814 -0.55831015 -1.5256647
000200 12 f4 02 c0 a6 73 f4 3f 25 a1 a7 3f 84 55 bd be
       -2.0461469 1.9097793 1.3096052 -0.36979306
000210 1b 63 b5 3f fa e8 d2 3f 7d a2 70 be d9 c2 c9 bf
       1.417087 1.6477349 -0.23499484 -1.5762588
000220 2d 85 e5 bd 3e 46 8f 3d d3 9a 7b 3f 1f ae 17 3f
       -0.11207042 0.069958195 0.9828312 0.5925006
000230 e6 39 ce 3e fd 56 59 bf 26 80 3b 3f 13 37 7a 3f
       0.40278548 -0.8489836 0.73242414 0.97740287
000240 98 d0 10 40 4e 43 6d 3f cb a5 cd bf fd 92 8b be
       2.2627316 0.92680824 -1.6066221 -0.2726058
000250 00 88 45 be d1 9f a6 be b7 af 33 bf 64 76 97 3f
       -0.19290161 -0.32543805 -0.70189995 1.1833005
000260 73 09 66 bf dc 00 f3 3d 09 e3 9d 3f e7 3a 93 be
       -0.8985817 0.11865398 1.2334911 -0.28755876
000270 b9 8f 8f bf 38 12 3a bf 71 dd d6 3f 54 bb 3f bf
       -1.1215736 -0.7268405 1.6786329 -0.74895215
000280 c7 af 45 bf 21 31 1b 3d bb 80 03 be 98 55 11 40
       -0.7722134 0.03788865 -0.12842076 2.2708492
000290 d7 d1 31 c0 b8 38 0e 3f 10 07 40 bf 35 b0 b8 be
       -2.7784326 0.55555296 -0.75010777 -0.36071935
0002a0 75 29 f5 3d 9b 07 04 40 b9 4e 06 be c9 88 68 be
       0.11970798 2.0629642 -0.13115968 -0.2270843
0002b0 62 04 b3 bf 5e e9 d3 bd 5d 6a ef bf dc 63 ab bf
       -1.3985713 -0.10347246 -1.8704334 -1.338985
0002c0 2b 76 c1 be 60 94 97 bf e5 61 19 3d 22 1f dc 3d
       -0.37785468 -1.1842155 0.037446875 0.107481256
0002d0 55 46 58 3f e6 ae 71 3f 0b 21 d2 bf f9 70 ae 3f
       0.8448232 0.944075 -1.6416334 1.3628227
0002e0 80 f1 5e 3f 40 f2 92 3f 65 4d 18 3f 07 49 b1 bf
       0.8708725 1.1480179 0.59493095 -1.3850411
0002f0 7a 55 14 bf da 4e 0c 40 e2 a2 f5 3e f2 4c aa 3f
       -0.57942927 2.1923127 0.47975832 1.3304732
000300 b3 fe 3b 3e 7c c0 90 be 40 9b ed 3f 69 05 b9 3f
       0.18358879 -0.28271854 1.8563004 1.4454776
000310 aa 97 93 3f 58 51 17 bf 2e f3 06 bf 29 24 1c 3f
       1.1530659 -0.59108496 -0.5271481 0.60992676
000320 69 96 4d bd 8f b9 d1 bf c3 09 86 3f c7 7b e3 3e
       -0.05019227 -1.6384753 1.0471729 0.44430372
000330 f6 94 97 bf 61 ec 83 bf 7c 4b b3 bd b5 c6 fb 3d
       -1.1842334 -1.0306512 -0.08754632 0.1229376
000340 6e ee b6 3e 00 ab 48 bf a5 10 a6 be 60 b3 f2 be
       0.35728782 -0.78385925 -0.32434574 -0.47402477
000350 2c e3 18 3f 08 44 0f 3f 55 95 93 3f 07 36 3f 3f
       0.59721637 0.5596318 1.1529948 0.74691814
000360 64 c2 10 3f b0 de 50 3f 80 74 90 be c5 76 47 bf
       0.56546617 0.81589794 -0.28213882 -0.779156
000370 d8 2a 23 bf 0e 73 9d 3e 36 f4 f4 be 4d 41 c1 be
       -0.6373725 0.30751842 -0.47842568 -0.37745133
000380 99 5a 06 bf 29 5b 5d be f7 52 8e bc ed d7 90 be
       -0.5248199 -0.21616806 -0.017373545 -0.28289738
000390 6f c6 70 3c 5c bc 5d 3f 6d 84 6f bc ea 92 03 bf
       0.014695748 0.8661554 -0.014618975 -0.5139605
0003a0 60 4f 68 3f 2f 90 bc bf 68 72 28 3f 8f c5 f2 bf
       0.90746117 -1.4731501 0.6579957 -1.896654
0003b0 c7 7e 83 bf 2e 45 c7 3c 36 1c 04 bf 35 13 b6 be
       -1.0273064 0.02432498 -0.51605546 -0.3556153
0003c0 5e 9b be 3f 4b 16 af bd ed 96 4f bf 50 e2 9b bf
       1.4891164 -0.08549174 -0.8108967 -1.217844
0003d0 16 02 ee 3e 6b 3e 66 be 4f 38 fe 3b 61 57 58 bf
       0.46485966 -0.22484748 0.0077581774 -0.8450833
0003e0 b1 fc a8 be b3 3c 81 3e 14 9b 78 bf 90 0b a6 bf
       -0.33005288 0.25241622 -0.9711163 -1.2972279
0003f0 ac b2 98 3f c4 0f ed bf c1 74 04 bf 47 5c 8a 3f
       1.1929526 -1.8520436 -0.5174065 1.0809411

weight f4 [32, 64]
000000 7e c0 d8 bd 0d 42 d6 bf 93 48 04 3f ae fc f2 be
       -0.1058359 -1.6738907 0.5167324 -0.47458404
000010 36 49 84 3f f2 01 d4 3e a1 21 80 be 5f 47 b9 3f
       1.0334842 0.41407734 -0.25025657 1.4474906
000020 33 00 90 3f 00 3e c9 bf 12 61 3b 3f 0d 1b 23 bd
       1.1250061 -1.5722046 0.7319499 -0.03982072
000030 55 a1 d5 bf 01 a3 cc 3f 01 cd 96 bf ce 78 58 bf
       -1.668986 1.5987245 -1.1781312 -0.84559333
000040 f0 eb 88 3d af df df 3d 8d 9e 5c bf d5 f7 4c bd
       0.066856265 0.10931336 -0.8617943 -0.05004104
000050 92 34 b7 bf 78 65 a6 3f ec 31 a3 3e 5e c5 05 40
       -1.4312918 1.2999716 0.31874025 2.0901713
000060 81 41 63 bf bb 0d c0 bf 16 d8 7e 3f 57 0e 81 bc
       -0.88771826 -1.500419 0.9954847 -0.015753908
000070 59 55 d8 be 5f a6 a1 3f 4b 43 fb 3e fc 34 9d bf
       -0.42252615 1.2628897 0.49074778 -1.2281795
000080 0a 7c e3 be 0a e9 d9 3e 07 db 3f 3f 00 6d 8c 3d
       -0.44430572 0.42560607 0.74943584 0.068567276
000090 3a 9b 45 3b f4 5a 25 40 23 a1 ce 3f bc 3c de bc
       0.0030152337 2.5836763 1.6142925 -0.02712857
0000a0 a6 ed 2c 3f 27 22 c9 be d7 64 2c bf 55 bd 60 bf
       0.6755012 -0.3928387 -0.6734137 -0.877889
0000b0 cd de 0b c0 a6 24 6a bf 37 86 a1 be 2d 55 91 3f
       -2.1854737 -0.9146217 -0.3154771 1.1354119
0000c0 bf 7d 61 be 77 2d aa bf 31 38 04 3f 5f d8 15 40
       -0.22020625 -1.3295125 0.5164824 2.3413312
0000d0 0e fd 86 bf 46 84 5f 3f 27 7b 98 bf f2 30 55 bf
       -1.0545976 0.8731121 -1.1912583 -0.8327781
0000e0 c0 2a c2 bf bc 8c 0b bf b4 b2 73 3f 0b 52 23 3f
       -1.5169296 -0.5451162 0.95194554 0.6379706
0000f0 5a 74 1a bf 79 bf de 3f 09 fc 90 3c df 2b db bd
       -0.6033379 1.7402183 0.017698305 -0.10701727
000100 c2 3e a0 bf 37 ee 3b 3f c8 7a 7c 3f 3e 4a d5 bf
       -1.2519152 0.7341036 0.9862485 -1.6663282
000110 7b 47 2e bd ca 37 0c 40 3a 75 d2 bf e4 5a 38 3f
       -0.042548638 2.190905 -1.6442025 0.7201369
000120 d3 e0 23 3f af 3b 08 40 7c 7d 63 3f ac 8b b1 3e
       0.6401493 2.1286428 0.8886335 0.34676874
000130 61 22 3e bf e7 23 28 3f 3a df 86 3f 64 8b 6c 3f
       -0.7427121 0.6567978 1.0536873 0.92400193
000140 91 69 34 3f ea 0d df be a1 e2 13 3f 57 f2 de 3d
       0.7047358 -0.43565303 0.57767683 0.108860664
000150 ec 45 a5 bf d4 f8 c1 bf 5d 15 32 be 7b 75 9d bf
       -1.2911963 -1.5154061 -0.17390962 -1.2301477
000160 c7 89 8a 3f 46 c5 29 3f 22 41 69 3f 81 a2 c9 bd
       1.0823296 0.6631664 0.9111501 -0.09845448
000170 d2 14 4e bf 57 5d 51 3f f1 cc 8f 3f 5f 45 e9 be
       -0.8050052 0.8178305 1.1234418 -0.45560738
000180 80 53 fa be 06 02 a5 3f ae a3 bb 3e f2 3b c5 3f
       -0.4889183 1.2891243 0.36648315 1.5408919
000190 bf 2d 09 bd 27 12 eb bd f5 d1 f9 3e dc a9 c4 3f
       -0.033490892 -0.11478072 0.48792997 1.5364337
0001a0 19 3b 88 bd 71 f1 b6 be 59 ca 56 3f d9 4a e7 be
       -0.06651897 -0.3573108 0.8390251 -0.45174292
0001b0 c0 9a 8c 3f ec e7 59 3e 54 cb 07 3e 8d 79 72 be
       1.0984726 0.21279877 0.13261157 -0.2367918
0001c0 cc 52 8d be 68 26 8d bf 7c d6 47 40 bd 6d 51 bf
       -0.27602232 -1.1027346 3.122466 -0.8180807
0001d0 6f da 5f 3f 03 71 87 3f 15 6d bc 3f 1d 8a f3 bd
       0.8744268 1.0581363 1.4720789 -0.118915774
0001e0 a1 49 83 3f ad d3 97 bf bc 2b f5 3f 79 28 14 bf
       1.0256845 -1.1861473 1.9153972 -0.57874256
0001f0 cd b5 c5 bd ee 9e 3f 3f c8 77 97 3f 1c 76 d6 3e
       -0.09653816 0.7485188 1.1833429 0.41886985
000200 2a 6c f8 3c d1 49 ba 3e 99 bc 9a bf f7 88 42 bf
       0.030325014 0.36384442 -1.2088805 -0.7599024
000210 b6 3c a1 3e 7c 8c dd bf 00 2b 8d be 80 cf d1 be
       0.3149163 -1.7308497 -0.2757187 -0.40978622
000220 88 ef 75 be 16 32 b0 be 49 25 ca bf 0d 7e a5 3f
       -0.24017155 -0.34413213 -1.5792629 1.2929093
000230 9d e2 84 bf ca 3e 0b 3f 24 83 38 3d 52 a0 13 bf
       -1.0381657 0.54392684 0.04504694 -0.57666504
000240 31 47 aa bf 8d 56 0a 40 2c b7 5c 3f 68 38 10 be
       -1.3302976 2.1615326 0.86217 -0.14084017
000250 fb 7f bf bf 6d 8b 76 bf 0a e7 a9 bf 0f 31 2f bf
       -1.4960932 -0.96306497 -1.3273633 -0.6843423
000260 be 65 7b bf 5c 07 1d 3f 27 8e 17 3e ae 5d 88 3f
       -0.9820212 0.61339355 0.1480032 1.0653589
000270 81 77 4f 3e 1c d1 a8 3f 77 8a a6 3f a9 fa 9d bf
       0.20260431 1.3188815 1.3011006 -1.234212
000280 3f b5 a1 3f 9c 31 61 3f fc 62 f7 be e2 be d3 bf
       1.2633437 0.8796632 -0.48317707 -1.6542628
000290 50 1e b7 bb f3 37 9a 3f 27 73 a8 3f 8d a7 cd 3e
       -0.0055883303 1.2048324 1.3160142 0.40166894
0002a0 88 4d 10 3c 0b 86 cf be bf 4d d5 3e ce b9 2e 3f
       0.008807547 -0.40531954 0.41660878 0.68252265
0002b0 12 a9 9f bc 3d 70 43 3e 62 ed 9d bf be d0 89 3f
       -0.019489799 0.19085784 -1.2338068 1.0766828
0002c0 31 76 f0 bf f6 6f 57 3f 2d 3f a7 3e 2c b4 cd 3a
       -1.8786069 0.84155214 0.32665387 0.0015693954
0002d0 89 0e 2e bd 05 18 2d 3f de bd cc bf c0 ac 25 3f
       -0.04249433 0.67614776 -1.5995443 0.6471672
0002e0 2b 64 86 3f aa f4 13 3f b2 60 11 3f 00 ab 29 be
       1.0499319 0.577952 0.5678817 -0.16569138
0002f0 0a d9 a3 bd b8 aa 4c 3f 0f c6 66 3e a4 f0 b6 bf
       -0.08000381 0.79947996 0.22536491 -1.4292188
000300 18 fa ae 3e 7b 9c 14 40 b3 ae 0d 3f f0 55 97 3e
       0.3417518 2.3220508 0.55344695 0.29557753
000310 67 b7 6c bf bb 80 00 40 2e 66 9a 3f bf 51 84 3d
       -0.9246735 2.007857 1.2062433 0.06460904
000320 41 57 45 3f ca d8 9c 3f 09 f2 e2 bf a4 bf 09 3f
       0.77086264 1.2253659 -1.7730113 0.53808045
000330 2d 53 e5 3f 46 9a f3 3d b4 82 f4 bc eb a9 8e 3e
       1.7916008 0.1189466 -0.02984748 0.27864012
000340 ac 75 31 3e ad 48 8b bf c1 bb 07 3f db 81 05 bf
       0.17330045 -1.0881554 0.53020865 -0.5215127
000350 c2 2a 15 3f a4 02 b8 3d 83 67 f7 3f f1 38 db be
       0.5826837 0.08984879 1.9328464 -0.4281688
000360 dd f5 13 3f d1 01 c5 be c1 87 08 3f 15 43 3f 3f
       0.5779703 -0.38477948 0.53332144 0.74711734
000370 51 45 5f 3f 2a 10 28 c0 b3 16 d3 bf 28 58 16 3f
       0.87215143 -2.6259866 -1.6491302 0.58728266
000380 b0 63 bc 3e 36 47 d3 3f 90 af 82 bf d3 c1 f8 3e
       0.36794806 1.6506107 -1.0209827 0.48585376
000390 2b b7 1a bd ab d8 44 3f 95 81 29 3e 9a c5 8c 3f
       -0.03777234 0.7689311 0.16553338 1.0997803
0003a0 dd d7 10 bf 58 62 11 c0 23 83 56 bf 30 e4 16 bf
       -0.5657938 -2.2716274 -0.8379385 -0.58941936
0003b0 e7 37 12 40 d9 22 a4 bf 0f 61 a7 3f 77 5e ad 3f
       2.284662 -1.2823135 1.3076495 1.3544453
0003c0 e2 f3 2e 3f 1f 85 d8 3e 98 6b 9b 3f 0e db 6a 3f
       0.68340886 0.42289063 1.214221 0.917405
0003d0 41 8f f2 bd 71 e7 d8 be 86 27 75 3f c9 93 34 3f
       -0.1184373 -0.42364076 0.9576343 0.70538
0003e0 29 b5 52 bf 2b 8e a8 3f 54 a8 ee bf 5b ae ad 3e
       -0.8230768 1.3168386 -1.864512 0.33922085
0003f0 f8 1e 69 bf 87 16 8b 3f 0e e3 75 3f 03 99 16 bf
       -0.9106288 1.086625 0.9604958 -0.5882723

tril f4 [32, 32]
000000 00 00 80 3f 00 00 00 00 00 00 00 00 00 00 00 00
       1.0 0.0 0.0 0.0
000010 00 00 00 00 00 00 00 00 00 00 00 00 00 00 00 00
       0.0 0.0 0.0 0.0
000020 00 00 00 00 00 00 00 00 00 00 00 00 00 00 00 00
       0.0 0.0 0.0 0.0
000030 00 00 00 00 00 00 00 00 00 00 00 00 00 00 00 00
       0.0 0.0 0.0 0.0
000040 00 00 00 00 00 00 00 00 00 00 00 00 00 00 00 00
       0.0 0.0 0.0 0.0
000050 00 00 00 00 00 00 00 00 00 00 00 00 00 00 00 00
       0.0 0.0 0.0 0.0
000060 00 00 00 00 00 00 00 00 00 00 00 00 00 00 00 00
       0.0 0.0 0.0 0.0
000070 00 00 00 00 00 00 00 00 00 00 00 00 00 00 00 00
       0.0 0.0 0.0 0.0
000080 00 00 80 3f 00 00 80 3f 00 00 00 00 00 00 00 00
       1.0 1.0 0.0 0.0
000090 00 00 00 00 00 00 00 00 00 00 00 00 00 00 00 00
       0.0 0.0 0.0 0.0
0000a0 00 00 00 00 00 00 00 00 00 00 00 00 00 00 00 00
       0.0 0.0 0.0 0.0
0000b0 00 00 00 00 00 00 00 00 00 00 00 00 00 00 00 00
       0.0 0.0 0.0 0.0
0000c0 00 00 00 00 00 00 00 00 00 00 00 00 00 00 00 00
       0.0 0.0 0.0 0.0
0000d0 00 00 00 00 00 00 00 00 00 00 00 00 00 00 00 00
       0.0 0.0 0.0 0.0
0000e0 00 00 00 00 00 00 00 00 00 00 00 00 00 00 00 00
       0.0 0.0 0.0 0.0
0000f0 00 00 00 00 00 00 00 00 00 00 00 00 00 00 00 00
       0.0 0.0 0.0 0.0
000100 00 00 80 3f 00 00 80 3f 00 00 80 3f 00 00 00 00
       1.0 1.0 1.0 0.0
000110 00 00 00 00 00 00 00 00 00 00 00 00 00 00 00 00
       0.0 0.0 0.0 0.0
000120 00 00 00 00 00 00 00 00 00 00 00 00 00 00 00 00
       0.0 0.0 0.0 0.0
000130 00 00 00 00 00 00 00 00 00 00 00 00 00 00 00 00
       0.0 0.0 0.0 0.0
000140 00 00 00 00 00 00 00 00 00 00 00 00 00 00 00 00
       0.0 0.0 0.0 0.0
000150 00 00 00 00 00 00 00 00 00 00 00 00 00 00 00 00
       0.0 0.0 0.0 0.0
000160 00 00 00 00 00 00 00 00 00 00 00 00 00 00 00 00
       0.0 0.0 0.0 0.0
000170 00 00 00 00 00 00 00 00 00 00 00 00 00 00 00 00
       0.0 0.0 0.0 0.0
000180 00 00 80 3f 00 00 80 3f 00 00 80 3f 00 00 80 3f
       1.0 1.0 1.0 1.0
000190 00 00 00 00 00 00 00 00 00 00 00 00 00 00 00 00
       0.0 0.0 0.0 0.0
0001a0 00 00 00 00 00 00 00 00 00 00 00 00 00 00 00 00
       0.0 0.0 0.0 0.0
0001b0 00 00 00 00 00 00 00 00 00 00 00 00 00 00 00 00
       0.0 0.0 0.0 0.0
0001c0 00 00 00 00 00 00 00 00 00 00 00 00 00 00 00 00
       0.0 0.0 0.0 0.0
0001d0 00 00 00 00 00 00 00 00 00 00 00 00 00 00 00 00
       0.0 0.0 0.0 0.0
0001e0 00 00 00 00 00 00 00 00 00 00 00 00 00 00 00 00
       0.0 0.0 0.0 0.0
0001f0 00 00 00 00 00 00 00 00 00 00 00 00 00 00 00 00
       0.0 0.0 0.0 0.0
000200 00 00 80 3f 00 00 80 3f 00 00 80 3f 00 00 80 3f
       1.0 1.0 1.0 1.0
000210 00 00 80 3f 00 00 00 00 00 00 00 00 00 00 00 00
       1.0 0.0 0.0 0.0
000220 00 00 00 00 00 00 00 00 00 00 00 00 00 00 00 00
       0.0 0.0 0.0 0.0
000230 00 00 00 00 00 00 00 00 00 00 00 00 00 00 00 00
       0.0 0.0 0.0 0.0
000240 00 00 00 00 00 00 00 00 00 00 00 00 00 00 00 00
       0.0 0.0 0.0 0.0
000250 00 00 00 00 00 00 00 00 00 00 00 00 00 00 00 00
       0.0 0.0 0.0 0.0
000260 00 00 00 00 00 00 00 00 00 00 00 00 00 00 00 00
       0.0 0.0 0.0 0.0
000270 00 00 00 00 00 00 00 00 00 00 00 00 00 00 00 00
       0.0 0.0 0.0 0.0
000280 00 00 80 3f 00 00 80 3f 00 00 80 3f 00 00 80 3f
       1.0 1.0 1.0 1.0
000290 00 00 80 3f 00 00 80 3f 00 00 00 00 00 00 00 00
       1.0 1.0 0.0 0.0
0002a0 00 00 00 00 00 00 00 00 00 00 00 00 00 00 00 00
       0.0 0.0 0.0 0.0
0002b0 00 00 00 00 00 00 00 00 00 00 00 00 00 00 00 00
       0.0 0.0 0.0 0.0
0002c0 00 00 00 00 00 00 00 00 00 00 00 00 00 00 00 00
       0.0 0.0 0.0 0.0
0002d0 00 00 00 00 00 00 00 00 00 00 00 00 00 00 00 00
       0.0 0.0 0.0 0.0
0002e0 00 00 00 00 00 00 00 00 00 00 00 00 00 00 00 00
       0.0 0.0 0.0 0.0
0002f0 00 00 00 00 00 00 00 00 00 00 00 00 00 00 00 00
       0.0 0.0 0.0 0.0
000300 00 00 80 3f 00 00 80 3f 00 00 80 3f 00 00 80 3f
       1.0 1.0 1.0 1.0
000310 00 00 80 3f 00 00 80 3f 00 00 80 3f 00 00 00 00
       1.0 1.0 1.0 0.0
000320 00 00 00 00 00 00 00 00 00 00 00 00 00 00 00 00
       0.0 0.0 0.0 0.0
000330 00 00 00 00 00 00 00 00 00 00 00 00 00 00 00 00
       0.0 0.0 0.0 0.0
000340 00 00 00 00 00 00 00 00 00 00 00 00 00 00 00 00
       0.0 0.0 0.0 0.0
000350 00 00 00 00 00 00 00 00 00 00 00 00 00 00 00 00
       0.0 0.0 0.0 0.0
000360 00 00 00 00 00 00 00 00 00 00 00 00 00 00 00 00
       0.0 0.0 0.0 0.0
000370 00 00 00 00 00 00 00 00 00 00 00 00 00 00 00 00
       0.0 0.0 0.0 0.0
000380 00 00 80 3f 00 00 80 3f 00 00 80 3f 00 00 80 3f
       1.0 1.0 1.0 1.0
000390 00 00 80 3f 00 00 80 3f 00 00 80 3f 00 00 80 3f
       1.0 1.0 1.0 1.0
0003a0 00 00 00 00 00 00 00 00 00 00 00 00 00 00 00 00
       0.0 0.0 0.0 0.0
0003b0 00 00 00 00 00 00 00 00 00 00 00 00 00 00 00 00
       0.0 0.0 0.0 0.0
0003c0 00 00 00 00 00 00 00 00 00 00 00 00 00 00 00 00
       0.0 0.0 0.0 0.0
0003d0 00 00 00 00 00 00 00 00 00 00 00 00 00 00 00 00
       0.0 0.0 0.0 0.0
0003e0 00 00 00 00 00 00 00 00 00 00 00 00 00 00 00 00
       0.0 0.0 0.0 0.0
0003f0 00 00 00 00 00 00 00 00 00 00 00 00 00 00 00 00
       0.0 0.0 0.0 0.0

weight f4 [16, 64]
000000 38 b2 4b bc c6 3e ce bd e4 9e 1e ba 0b a5 51 bd
       -0.012432627 -0.10070567 -0.0006050898 -0.051182788
000010 d3 84 c8 3d d3 25 01 bd 62 5c 5d bd a8 5a 5a 3d
       0.09790959 -0.031530213 -0.05404318 0.053309113
000020 90 79 e5 3d fd 43 a3 3d d0 e3 70 bd 49 5f c3 3d
       0.11204827 0.07971952 -0.05881101 0.095396586
000030 a5 dd 99 bd 68 56 61 3d fe ac 31 be f9 6e c9 bb
       -0.075129785 0.055014044 -0.17351148 -0.006147262
000040 93 14 34 bd 17 eb 9a bd 22 b3 54 bd c0 16 de 3d
       -0.043964934 -0.07564371 -0.051928647 0.10844183
000050 dd 41 9a 3c cf 18 37 3d 4a 2a aa 3d 81 1c 3b bd
       0.018830234 0.044701394 0.08308847 -0.04568148
000060 5b 94 8b 3d e0 ba c3 bd cb 9b 45 3c 27 8e 73 bd
       0.06815406 -0.09557128 0.01206107 -0.05946174
000070 c2 b5 cb 3d de 47 0e 3e 67 ff 93 bd c8 f9 ed 3d
       0.09946777 0.13894603 -0.072264485 0.116199076
000080 cd 6a 25 3d cc 57 48 bd 29 5e e1 bd 47 b7 9e 3d
       0.040385056 -0.048911855 -0.11004288 0.07749801
000090 74 de 93 3c 3e ed ae bc 69 06 4c bd ad b5 cd bc
       0.01805041 -0.02135336 -0.0498108 -0.025111044
0000a0 73 e5 f4 bd d2 35 1e be fc d0 fd bd 6a ed a1 bd
       -0.119578265 -0.15450218 -0.12393376 -0.07906611
0000b0 62 19 5b bd 1a de 96 bd ca a3 84 3b e2 5f d2 bd
       -0.053491004 -0.07366581 0.0040478455 -0.102721944
0000c0 3d 40 27 3e 8a 00 0d 3d 54 98 8d 3d f3 88 8b 3d
       0.16333099 0.034424342 0.0691382 0.0681323
0000d0 e7 c2 15 be f3 15 80 bc fe 05 5a bd 47 fd b3 3d
       -0.1462513 -0.015635466 -0.05322837 0.08788543
0000e0 9b 15 fe bd d9 09 be bd fe 38 cf 3a 33 80 76 bd
       -0.12406465 -0.09279222 0.0015809832 -0.060180854
0000f0 44 36 ac 3d 64 05 d0 bd 72 08 98 bd 1b b6 1d be
       0.08408788 -0.10157278 -0.07423486 -0.15401499
000100 03 85 91 bd b1 67 1f be 07 74 6e bd e3 cb 6d bd
       -0.07105448 -0.15566899 -0.05821612 -0.05805577
000110 5c 65 dc bd 6d 5d 81 3d be 4e e2 bd 54 23 e3 bb
       -0.1076152 0.06316648 -0.11050175 -0.0069317017
000120 5e 0d 21 3d 50 dd 96 bd 9a 27 f7 bd 18 62 5a 3d
       0.03931939 -0.07366431 -0.120681 0.053316206
000130 02 4c a0 3d 6e 90 83 bd 48 44 0d be bd 97 c3 bd
       0.07826997 -0.06424032 -0.13795578 -0.09550426
000140 96 d6 bd bb 5a f6 88 3d 44 bd ed 3d c5 ed c5 bc
       -0.005793403 0.06687613 0.11608365 -0.024161229
000150 18 ca 7e bd d9 4c e2 3d bc 94 ca bd e3 5e 93 3d
       -0.06220445 0.11049814 -0.0989165 0.071958326
000160 31 70 39 3b 54 75 b4 bd 55 d8 7e 3d 31 34 93 bd
       0.002829563 -0.08811441 0.06221803 -0.07187689
000170 27 29 ff 3c 6f 82 03 3e 5a be c9 3d e0 40 94 bc
       0.031147553 0.12842725 0.0985076 -0.018097341
000180 5c b0 61 3d 3b db 49 bd a4 df fa bd 8a 7c 21 bd
       0.05509983 -0.04928134 -0.12249687 -0.03942541
000190 b4 85 f9 bd ac bb b2 3d 5e 47 71 bd ac 37 d3 3c
       -0.12183705 0.08727202 -0.05890595 0.025783382
0001a0 8f 86 7f 3d 7a 25 58 bd 6e 63 38 bd 6c cc 08 3e
       0.062384184 -0.052770115 -0.0450167 0.13359231
0001b0 81 89 ff bc da 99 eb bd 8b 62 26 be fc 26 a2 3d
       -0.031193497 -0.11503954 -0.16248529 0.07917592
0001c0 71 bd 08 3e e6 24 92 bd db 3d b7 bc 2d 42 b0 3c
       0.13353516 -0.07135944 -0.022368362 0.02151593
0001d0 2b b4 97 3d 26 60 e9 bc de 60 f1 bc 86 e5 c1 bd
       0.07407411 -0.02848823 -0.029465135 -0.09467606
0001e0 07 d6 c8 bd 6b 7e 1b 3b d3 a7 98 bd ad f1 83 bd
       -0.098064475 0.0023726474 -0.07453885 -0.0644258
0001f0 bf 6f 95 3d f9 88 25 bd 23 78 bc bd 62 e9 34 3e
       0.072967045 -0.04041383 -0.09202602 0.17667153
000200 a7 96 11 3e 92 88 a0 bd 07 cd 35 3d 2e 6d 3f 3e
       0.14217626 -0.07838549 0.044384982 0.18693992
000210 34 63 51 bd 9b d7 5a 3d ec fe a3 3d ba 49 d0 bd
       -0.051119998 0.053428274 0.08007607 -0.10170312
000220 cb 0e e7 bd 66 46 fb 3d 4a 14 bc bd be 05 52 bd
       -0.112821184 0.12269287 -0.09183557 -0.051275007
000230 62 7d 4e 3d 5f 4d b9 3d f0 4f 62 bd 07 5f ee 3d
       0.050412543 0.090479605 -0.055252016 0.11639219
000240 dd 85 e5 bd 1a 68 b9 3c aa a0 7e bd 12 32 02 be
       -0.11207173 0.022632647 -0.06216494 -0.12714413
000250 19 1e c9 bd 70 fd f1 3a 7a 2f 96 3d ec 25 e6 3d
       -0.09820194 0.0018462371 0.07333274 0.11237702
000260 39 d3 df bd 9e 67 c3 bc bf 75 df 3d a5 f5 01 bd
       -0.109289594 -0.02385312 0.1091113 -0.031728406
000270 5a 6c 23 3d e3 f2 96 bd 15 73 0f 3d 22 0c a7 bd
       0.039898254 -0.07370546 0.03502186 -0.08156611
000280 7e c1 9e 3d 38 13 29 bc 2c f2 a1 3d fa f5 40 3a
       0.077517495 -0.0103195235 0.07907519 0.0007360872
000290 df 3c f1 bd ce 3f fe bd 99 12 57 3d 7c 57 1a 3c
       -0.11779188 -0.124145135 0.05250797 0.009420272
0002a0 e0 90 f3 bc 49 a3 5f bd 64 a0 91 3d 9c eb 02 3d
       -0.029732168 -0.05459908 0.0711067 0.031962976
0002b0 7f 4b cf 3d f1 4f de 3d ca 2f 4e bd 2b 37 1d 3c
       0.101218216 0.10855091 -0.050338544 0.009595673
0002c0 aa 92 88 3d 44 06 34 bc e2 83 26 be f4 ad 30 3c
       0.06668599 -0.010987822 -0.16261247 0.010783661
0002d0 64 f3 b3 bd 86 96 e1 3c 50 e5 f9 3d e9 46 3c 3e
       -0.087866575 0.027537595 0.12201941 0.18386425
0002e0 e1 9c ef bd ae 0b 57 bd e3 17 79 3d 05 29 0a 3d
       -0.11699844 -0.052501373 0.060813796 0.033730526
0002f0 88 6f be 3d 4a 76 83 3d 22 42 ec bd 59 1f 9c 3d
       0.09298617 0.06419046 -0.11536051 0.076231666
000300 94 0c 05 3d b1 bf 92 3c 6f 15 f8 bd 65 86 33 3e
       0.0324827 0.017913671 -0.12113463 0.17531736
000310 18 80 55 bd 69 2e 6e 3d 41 d4 5d 3c 5b 80 96 bd
       -0.052124113 0.05814973 0.013539375 -0.073487006
000320 41 c6 d4 bd a4 bc 58 bd be d1 b1 bd 04 ba ce bd
       -0.103893764 -0.052914277 -0.08682583 -0.100940734
000330 58 b6 70 3c 2a 9b bd bd ec cd 20 3e 69 0a 07 bd
       0.014691912 -0.09258111 0.15703553 -0.032968912
000340 19 08 b7 3d 59 bc 14 3e 52 c3 a6 3d a0 2a 99 3d
       0.089370914 0.14524974 0.08142723 0.07478833
000350 c9 af d8 bd 60 b9 bb 3d 3e 32 76 bd b7 03 8c bd
       -0.10580403 0.09166217 -0.06010651 -0.06836646
000360 71 76 03 bd 72 e2 b6 3d 8a a8 f2 3c 61 2b 79 3d
       -0.032095376 0.0892991 0.029621381 0.060832385
000370 8a 45 7b bd b1 6f d0 3d fe b3 6c 3c 21 f3 d9 bb
       -0.061345614 0.101775534 0.01444721 -0.0066512977
000380 63 53 98 bd 79 98 ae bd b6 2e 19 bd 2a 9d fd bd
       -0.0743778 -0.085251756 -0.037398063 -0.12383492
000390 d0 16 42 3d 97 f8 da bc 85 0e 8a 3b be 27 cf bc
       0.047385037 -0.026729865 0.0042131566 -0.025287505
0003a0 71 2d 92 bd af ce f1 3d a8 53 ac bd c7 e4 36 3d
       -0.071375735 0.11807 -0.08414394 0.044651773
0003b0 bb 06 61 3b 14 45 3c bc 54 12 ca 3d 6f ea 8f bd
       0.0034336287 -0.011491079 0.09866777 -0.070271365
0003c0 c1 1f 0e be 05 43 33 bd ce 8a ad bc ac 5b 40 bc
       -0.138793 -0.043765087 -0.021184351 -0.011740606
0003d0 47 c4 5c bd 7f aa a3 3d ee 39 e9 3d a4 cb ca 3d
       -0.053898122 0.07991504 0.11388002 0.099021226
0003e0 fe 75 b2 3d 19 f8 c4 3c 0e 55 0b be 81 e6 98 bc
       0.087139115 0.024044083 -0.13606665 -0.0186646
0003f0 f0 de 01 be 22 e2 40 bc 0b f5 7b bd 4f cd c2 bd
       -0.126827 -0.011772664 -0.061512988 -0.09511816

weight f4 [16, 64]
000000 49 d2 9f 3d e4 b2 8b 3d 24 23 3f bd e4 8e 8a bd
       0.078037806 0.0682123 -0.046664372 -0.067655355
000010 07 16 a4 bd d4 5d 79 3d c5 c8 aa 3d 30 64 4c bd
       -0.08012014 0.060880497 0.08339075 -0.049900234
000020 ae 41 f1 bd dc fb 96 bd bf 7f dc 3d 2c a3 b1 3d
       -0.117801055 -0.07372257 0.10766553 0.08673701
000030 6f f3 8c bd ce 3b 0f 3d 8c b8 d9 3d 17 4d 34 bd
       -0.06882369 0.034969144 0.10630903 -0.04401883
000040 ea 83 c6 3d 09 5c 15 bd 96 49 0e be ce b6 3f 3d
       0.09693129 -0.036464725 -0.13895258 0.046805196
000050 f7 15 ab 3d ea b4 1f bd 3c 4a 93 bd 36 c0 76 3c
       0.08353799 -0.038990892 -0.071918935 0.015060475
000060 07 77 98 3c 8b cb 6a 3d a2 a3 e4 3c 76 c6 c3 bd
       0.018611444 0.05732302 0.027910057 -0.09559338
000070 2f a3 cb bc d1 5e 80 3d f9 53 b5 3d 3a a8 a5 bc
       -0.024858085 0.06268085 0.08853907 -0.020221818
000080 99 97 f4 3c 73 9e 22 3c 6b 38 bf 3d 4f 84 e6 3d
       0.029857444 0.009925473 0.09336933 0.112557046
000090 f4 d7 ef bb 01 3c e6 bd ba d9 a0 3d 09 4a e4 3d
       -0.007319445 -0.112419136 0.07854028 0.111469336
0000a0 aa bc 20 3c 7a 3e de 3d 5a da 99 bd 4e 90 43 bd
       0.009810606 0.1085176 -0.075123504 -0.04774504
0000b0 23 2f ae 3d 11 68 72 bd 25 de 87 3d c9 63 60 3d
       0.08505084 -0.059181277 0.066341676 0.054782663
0000c0 25 f7 4e 3d 13 54 04 3d 38 6c 29 be dd 20 da 3c
       0.050528664 0.032306742 -0.16545188 0.026626999
0000d0 b1 eb 7f bd 8a da ca bd 8b 57 3d 3d d7 d4 b1 bc
       -0.062480632 -0.09904964 0.046226066 -0.021707935
0000e0 16 22 15 be 07 06 ae 3d 3a ee 37 3d f7 cf a0 bd
       -0.14563784 0.084972434 0.044904925 -0.07852166
0000f0 80 2f 20 bd 0a 0a 26 be ce 26 ba bc ec d0 0a be
       -0.0391078 -0.16214767 -0.022723582 -0.1355626
000100 84 37 9b bd c8 98 90 3c 99 ae c9 3d e1 c0 0a bd
       -0.07578948 0.017650977 0.09847755 -0.03387535
000110 6b ff a4 bd 4b fe 08 3e bd 0b 3e bd 41 83 5f 3d
       -0.080565296 0.13378255 -0.046397913 0.054568533
000120 e3 55 c1 bd 48 69 21 3b 06 03 14 3d 94 b8 b9 3d
       -0.0944021 0.0024629403 0.036135696 0.090684086
000130 60 e1 9c bd 37 30 60 bd 8c 5b e6 bd e4 44 01 be
       -0.07660174 -0.05473348 -0.1124793 -0.12623936
000140 24 48 21 bd f2 94 c2 3c 14 a2 93 3d ba b5 bc bd
       -0.03937544 0.023752663 0.07208648 -0.09214349
000150 a4 b0 e6 bd 29 a9 2d 3d 4b b4 09 bd 0c aa 76 bd
       -0.1126416 0.04239765 -0.033619206 -0.060220763
000160 e5 dd 46 3e b0 04 d8 bd 99 20 33 3d cb 1a 1e be
       0.19420584 -0.10547769 0.04373226 -0.15439908
000170 a8 d9 df bd 95 b8 76 bd e6 13 80 3d 0c b5 b3 3d
       -0.109301865 -0.060234625 0.06253795 0.08774766
000180 01 c5 0a be 5d 57 1b 3e 16 6b b3 ba d9 dd fb 3d
       -0.13551714 0.15170045 -0.001368853 0.122981735
000190 b4 e0 90 3d 09 28 ce 3d 4a 54 1f 3d 0e 28 ab bb
       0.07074109 0.1006623 0.038898744 -0.0052232808
0001a0 ef 65 01 be 27 c2 b6 bd 75 ac 93 bd 60 03 bc 3c
       -0.12636541 -0.0892375 -0.07210628 0.022950828
0001b0 15 b3 f4 3d c6 d3 ce 3d f5 a6 68 bd be c2 ac 3d
       0.1194822 0.10098986 -0.056799848 0.084355816
0001c0 09 ba d6 3d 4f 16 dc bc 46 9b 4f bd bc eb ac bd
       0.10484702 -0.026866106 -0.05068519 -0.084434
0001d0 5d fd ef 3c 4d 30 ce 3d 72 9f e3 bd 53 c6 11 be
       0.029295618 0.100678064 -0.11114396 -0.14235811
0001e0 f4 93 1c 3d 96 d2 83 3c e0 71 2c bd 11 ed 37 3d
       0.038227037 0.016091626 -0.042100787 0.04490382
0001f0 a0 6e fa bc d1 48 b8 3d e9 34 96 3d d0 67 e3 bb
       -0.030570328 0.089982636 0.073343106 -0.0069398656
000200 32 e5 18 be bf a9 25 3d d1 08 1b be 04 92 87 bb
       -0.14931181 0.040445086 -0.15140082 -0.0041372795
000210 c8 30 c7 bd 97 9f 9b bd 63 20 e5 3c 2e d0 f0 bd
       -0.09726101 -0.07598799 0.027969545 -0.11758457
000220 21 b1 59 bd 15 f4 07 bd e6 b8 a7 3d ac 1d 1d 3e
       -0.05314744 -0.03319176 0.081895635 0.1534335
000230 ec 8b 14 be 57 bc 03 3e c5 f6 cd bd f8 3a 91 3d
       -0.14506501 0.12864815 -0.10056833 0.070913255
000240 72 a7 bd 3d 43 04 e4 3d 72 c9 08 be 0d 01 fa 3d
       0.09260453 0.11133625 -0.13358095 0.12207232
000250 f1 42 8f bd 76 08 5c 3d 89 32 ad bd 22 c8 4d 3d
       -0.0699519 0.053719006 -0.084569044 0.05023969
000260 99 e5 99 bd 12 c4 34 bc 1e 7e e2 3d e0 b4 19 bb
       -0.075144954 -0.011033075 0.11059211 -0.0023453757
000270 e6 71 ab 3d 58 c9 33 bd 35 3a d5 bd 12 e3 67 bd
       0.08371334 -0.04389319 -0.10411493 -0.056613036
000280 59 14 bb 3d de c7 35 bd ac a5 89 3d a5 4a d2 3d
       0.091347404 -0.04438006 0.067210525 0.102681436
000290 b0 b1 eb 3d 66 b3 cf bb 2e f8 ac 3d 24 f0 01 3e
       0.115085006 -0.0063385246 0.08445774 0.12689263
0002a0 ed 48 a3 bd f0 77 b8 bd a1 03 f3 bb a8 03 96 bd
       -0.07972894 -0.09007251 -0.007416204 -0.07324916
0002b0 d0 d9 af bc 2a 24 74 bd 92 4c dc 3c 7e 6d f9 bd
       -0.021466166 -0.0596048 0.02689198 -0.12179087
0002c0 fb bf 04 3e b2 d3 8a 3d b5 da da 3d 47 4c db bd
       0.1296386 0.06778659 0.10686246 -0.10707908
0002d0 96 84 ec bb 87 9e 38 bc e1 2e 79 bc 30 ca 4b bd
       -0.007217954 -0.011268265 -0.015208931 -0.049753368
0002e0 fa 2b 02 3d 7c ff 07 be f1 84 1e bc 2b c0 e6 3d
       0.03178022 -0.13281053 -0.00967525 0.11267122
0002f0 20 ff d2 3d 94 f3 6f 3d e1 1d dd bd 45 0b de bd
       0.103025675 0.058581904 -0.107967146 -0.10841993
000300 34 1b 1a be 17 29 8d bd a6 71 cd 3d 9a 1f ac 3c
       -0.1504944 -0.06892603 0.10031442 0.021011163
000310 0f 35 02 3d 13 ec 0b be 59 74 97 3d 92 81 77 3d
       0.031788882 -0.13664274 0.073952384 0.060426302
000320 24 90 da 3d 08 26 80 bd b2 9f b9 bc 8d e9 eb 3c
       0.10672024 -0.06257254 -0.022659156 0.02879789
000330 f0 b8 a9 3d d6 9a ef bc fc 1c 98 bd 6d e5 e8 3d
       0.08287227 -0.029248636 -0.07427403 0.113718845
000340 6c b2 96 bd f8 64 09 bd 51 0a b0 bd 82 2c c1 bd
       -0.0735825 -0.033543557 -0.08595718 -0.09432317
000350 a7 e9 68 3d 83 32 b8 bc 8f 35 eb bd 4c c4 fe bd
       0.056863453 -0.022485023 -0.11484825 -0.124397844
000360 03 88 00 3c f2 b6 e5 bd a1 53 25 3d 32 8a f7 3d
       0.007844928 -0.11216535 0.040362958 0.120869055
000370 da 93 bc 3d 0c dd d6 3c 0e cb ef bd 5f 4f 53 3d
       0.09207888 0.02622845 -0.117086515 0.051589366
000380 1f d4 5d 3a 71 2d a3 bb f5 f9 be bd 05 61 82 3d
       0.00084620895 -0.0049797823 -0.09325019 0.06366161
000390 a3 8a 8a bd 78 3a d1 3d ea f3 a3 bd c0 7a 01 3e
       -0.06764724 0.1021623 -0.08005507 0.12644482
0003a0 57 91 e1 bd 80 bb 36 bd c4 dd c3 3d e8 74 9c 3d
       -0.110140495 -0.044612408 0.09563783 0.076394856
0003b0 18 1c a5 3d fc c0 e7 bc bd 89 80 bd b0 76 b3 bd
       0.08061999 -0.028290264 -0.062762715 -0.08762872
0003c0 b3 41 6f bc ae be 9a 3d aa 33 3f 3d e4 20 00 be
       -0.014603066 0.075559005 0.04668013 -0.12512547
0003d0 84 4c c0 3c a4 e3 b5 3d bf e3 f2 3d 4c 8d 88 bd
       0.023473985 0.0888131 0.11859845 -0.06667575
0003e0 b6 87 ae bd 58 c9 0f be 2a 33 68 3d e0 b6 f0 bd
       -0.085219786 -0.1404165 0.05668942 -0.11753631
0003f0 38 a2 8a bc d4 ca 9c 3d 06 f6 f6 bc c7 df 1a bc
       -0.016923055 0.07655874 -0.03014661 -0.009452767

weight f4 [16, 64]
000000 67 15 a1 3d 18 55 c8 bd e7 b2 c0 ba 4c 46 a2 bd
       0.0786541 -0.09781855 -0.0014701755 -0.07923564
000010 1a fd 7c bd 58 dc 5d bd 6f dc fc 3c 2b 7b 99 3d
       -0.061764814 -0.054165214 0.03086683 0.074941956
000020 97 b4 17 bd f6 20 9b bd f2 a2 c5 3a 57 bb e5 3d
       -0.03703746 -0.07574646 0.0015078469 0.11217373
000030 62 b1 89 3b f0 dc cd bc 7e 75 10 3c 3e 5e c7 bd
       0.004202054 -0.025129765 0.008817075 -0.09734772
000040 93 59 9e 3b 9d 21 ed 3d 25 68 99 3d cb 54 93 3d
       0.0048324554 0.11578677 0.07490567 0.07193907
000050 87 18 87 bb ae 11 0e 3d 1f 63 13 3d 97 54 75 bd
       -0.004122797 0.03468483 0.0359832 -0.059895124
000060 b7 49 85 3d 82 fe 3a 3d 7d af d9 3d 63 89 4d 3d
       0.065082006 0.045652874 0.10629175 0.05017985
000070 7a 1b 1f bb 42 fa 20 3e 7d df 20 bd b4 87 6f 3d
       -0.0024277852 0.15720466 -0.039275635 0.058479026
000080 64 3c 04 bd 58 e2 f5 3d b5 f9 af bd f0 32 ca 3d
       -0.032284155 0.12006062 -0.0859255 0.09872997
000090 bc 75 db 3d e0 24 89 3d df 60 00 be c8 02 a9 3c
       0.107158154 0.066964865 -0.12536953 0.020631209
0000a0 be cc 08 3c d1 aa 21 bd 39 ec 6d 3c b7 22 ff 3d
       0.008349596 -0.039469544 0.014521652 0.12457793
0000b0 80 8e 42 bd c6 a7 f6 bc d9 88 7b bc 3b 2f aa bd
       -0.04749918 -0.030109297 -0.015352451 -0.0830979
0000c0 a5 85 03 bd b2 94 b8 3d 29 8a e8 3c 1f 8b a7 3c
       -0.032109875 0.090127364 0.028386192 0.02045208
0000d0 2a 9c 66 bd 5d b6 0c 3d 21 b5 5c 3d 45 dd 13 be
       -0.056301273 0.034353603 0.053883675 -0.14439876
0000e0 3b b2 e0 3d 5b 83 ba 3d 57 65 10 3e 60 41 0b 3e
       0.10971495 0.09107085 0.14101158 0.13599157
0000f0 ec f2 88 3d c1 89 74 bd c0 63 1b 3e 34 cb ee 3c
       0.06686959 -0.059701685 0.1517477 0.02914963
000100 f1 5c a1 bc b3 b0 ac 3c 06 6c c4 3d ae f5 86 bd
       -0.019697638 0.02108035 0.09590916 -0.065898284
000110 2c e2 cd 3d 0e 1b 0b 3d 62 a9 15 3b ac 5f 9c 3d
       0.100529045 0.03396135 0.0022836556 0.076354355
000120 e4 4e 87 bd 37 60 fc 3d 72 f1 c1 bc d6 a5 d5 3c
       -0.06606844 0.12323039 -0.0236747 0.026080053
000130 ff e1 11 bd a4 7a 06 3c 1d f4 2e 3d 3e be 9d bd
       -0.035615917 0.008207951 0.042713273 -0.077023014
000140 2c 05 e9 3b 5e 77 88 3c 80 9a 7e 3d db 9b 36 bd
       0.0071112122 0.016658481 0.06215906 -0.04458223
000150 fb 09 b4 3b e5 e1 14 bc 9a 36 0b 3c de 31 e7 bd
       0.005494354 -0.009087061 0.008496905 -0.11288808
000160 04 4a e4 bc a5 76 86 3c 77 c2 97 bc 32 8d a2 3d
       -0.027867325 0.016413996 -0.018525345 0.07937087
000170 6e 28 03 3e 9e dc a4 bb 79 64 b9 3c 40 1f 23 bd
       0.12808391 -0.0050311824 0.022630917 -0.039824724
000180 60 d3 90 3d ee 11 8e 3c 12 c2 6d 3d e8 e0 93 bd
       0.070715666 0.017342534 0.058046408 -0.07220632
000190 cf 26 79 3b 23 d4 9c 3d 24 4f 3f bb 6f 32 6b 3c
       0.0038017516 0.07657649 -0.0029191459 0.014355286
0001a0 c7 84 0a bc 8f 36 03 3e 78 ee 2b bd 2b 09 ff bb
       -0.008454508 0.12813781 -0.04197547 -0.0077830753
0001b0 e1 dc 5b bd 97 de 9d bd f1 2b a0 bd 78 a3 2e bd
       -0.053677443 -0.07708471 -0.07820881 -0.042636365
0001c0 a6 3b c3 bd a6 64 b4 bc db 48 4e 3c 44 a7 07 bd
       -0.095328614 -0.02202065 0.012590612 -0.0331185
0001d0 81 e5 98 3d 98 5e 92 bd 93 7d 97 bc dc 18 b4 3d
       0.074656494 -0.071469486 -0.018492496 0.08793804
0001e0 a2 26 db bd f5 73 f4 bd 1a 77 9c bd f8 05 05 bd
       -0.10700728 -0.119361795 -0.07639904 -0.032476395
0001f0 0e a4 8c bc 4c 70 d4 bc 80 31 0b be 78 af ba 3c
       -0.017168071 -0.025932454 -0.13593102 0.022788748
000200 cb 29 cf bd 46 65 36 3d 6b 02 ae bd 26 dc b8 bd
       -0.10115393 0.044530176 -0.08496555 -0.09026365
000210 63 9e f7 bd 02 fb ec 3d 6b 00 c9 bd 7b f7 07 3e
       -0.12090757 0.115713134 -0.09814533 0.13278
000220 f8 48 4e 3d d5 8b bf bd de 7f bb 3d c6 bd 8b bd
       0.050362557 -0.09352843 0.09155248 -0.06823306
000230 b3 1d b2 bd 33 5c 55 bd ff ad 88 3d 7b a2 33 3c
       -0.08697071 -0.05208988 0.06673812 0.010964031
000240 f9 fc 05 bd 0a 38 71 bd e7 d4 90 bd ca 63 82 3d
       -0.032711957 -0.058891334 -0.07071858 0.063666895
000250 50 27 72 3d b2 a8 1a bd 05 07 28 bc 59 ca da 3d
       0.059119523 -0.037758537 -0.01025558 0.10683126
000260 28 b5 a4 3d 1d f2 9d bd a6 7b 0a 3e 2c 9b b1 bd
       0.08042365 -0.07712195 0.1352373 -0.08672175
000270 e8 80 61 bd 75 2e b8 3c ed d7 a8 3d a0 85 21 3d
       -0.055054575 0.02248309 0.082443096 0.039434075
000280 ec 74 e1 bd ca 1b e7 3d 17 8c 86 3d 37 83 f8 bd
       -0.11008629 0.11284597 0.06569689 -0.12134402
000290 a8 02 ba 3c c1 e8 0a bc 13 68 27 3d 0e 2b b9 3c
       0.022706345 -0.008478344 0.040870737 0.022603538
0002a0 4b 67 87 bc 95 c9 e3 bd f7 d5 92 3d e6 01 77 3d
       -0.016528746 -0.11122433 0.07169717 0.060304545
0002b0 f5 2b b3 3d fa 8d b8 3d 39 da a8 bd 7d c6 91 bc
       0.087486185 0.09011455 -0.08244748 -0.017794842
0002c0 fa 6e bb bd 4a 52 80 3d bc 4e 5e bd e6 15 a8 3d
       -0.091520265 0.062656954 -0.054274306 0.08207302
0002d0 d0 93 0b 3c 0d 34 96 bd a0 67 78 3d aa cb b4 3d
       0.008519128 -0.07334147 0.0606457 0.08827908
0002e0 19 a7 14 3d 43 45 1b bd ee 4b db 3d 0b cd c7 3c
       0.03629217 -0.03790785 0.10707842 0.024389764
0002f0 89 de f5 3d 33 82 cb 3d 1f 26 c7 3c b2 1a d7 3d
       0.12005336 0.09936943 0.02431017 0.105031386
000300 b0 2f cb bd 17 49 21 bd 8a 67 1a 3c f2 30 54 bd
       -0.09921205 -0.039376345 0.0094241 -0.05180449
000310 2f 9a ed 3d 77 11 f5 bc 88 f7 0c be 08 63 e6 bc
       0.11601674 -0.029915554 -0.137663 -0.028123394
000320 db bb 75 bc 64 99 0b be 20 47 b4 bd d0 c3 f2 bd
       -0.0149984015 -0.13632733 -0.088026285 -0.118537545
000330 91 52 3b bd c1 89 55 bc 18 ab 4d bd d6 10 a8 3d
       -0.04573304 -0.013033331 -0.050211996 0.08206336
000340 14 b9 7c bd 45 35 4c 3b 83 7b 99 bd 1e da e7 3d
       -0.06169994 0.003115968 -0.07494261 0.113208994
000350 c1 de 7a bd ac 5e 97 bd 45 f6 b5 bd 07 63 a2 3d
       -0.06124759 -0.07391104 -0.08884863 0.07929044
000360 a9 73 be 3c 90 a6 d0 3d cf 13 cb 3d 30 ae a2 3d
       0.02324851 0.10188019 0.099158876 0.0794338
000370 03 ca 9f bd cd 86 30 bc 14 8a 73 3d bd aa 44 bd
       -0.078022026 -0.0107743265 0.059457853 -0.04801439
000380 3f c8 d4 bd c2 16 95 3d f2 47 99 bd 29 02 08 3c
       -0.103897564 0.07279731 -0.074844256 0.008301296
000390 e9 bc b0 bc 5c 8c ee bd 17 a3 13 bd 4b 8a 7d bd
       -0.021574454 -0.11647865 -0.036044206 -0.061899465
0003a0 67 6d 86 3c 36 2b d6 bd 18 05 f9 bd 03 18 98 3d
       0.016409589 -0.104574606 -0.12159175 0.07426455
0003b0 2b 36 b1 3d 7a 60 c6 3d b9 5e 3e bd b7 7c 80 bd
       0.0865291 0.0968637 -0.046477053 -0.062737875
0003c0 96 7c d9 bd dd 4a f8 bc 76 f7 47 bd 52 a1 6f bd
       -0.10619466 -0.030309135 -0.04881998 -0.058503456
0003d0 65 85 22 3d 2c 93 f2 bc c5 d4 53 3d 7f 1b 03 b9
       0.039677996 -0.029611193 0.051716585 -0.00012503377
0003e0 28 5c 77 3d c1 8f 04 bd 85 b1 b5 ba fd 56 c4 3d
       0.06039062 -0.032363657 -0.0013862109 0.09586904
0003f0 da b6 55 3c e9 34 d2 bd 52 a7 1b 3d 3e b7 a3 3c
       0.0130440835 -0.10263998 0.038001366 0.019984838

tril f4 [32, 32]
000000 00 00 80 3f 00 00 00 00 00 00 00 00 00 00 00 00
       1.0 0.0 0.0 0.0
000010 00 00 00 00 00 00 00 00 00 00 00 00 00 00 00 00
       0.0 0.0 0.0 0.0
000020 00 00 00 00 00 00 00 00 00 00 00 00 00 00 00 00
       0.0 0.0 0.0 0.0
000030 00 00 00 00 00 00 00 00 00 00 00 00 00 00 00 00
       0.0 0.0 0.0 0.0
000040 00 00 00 00 00 00 00 00 00 00 00 00 00 00 00 00
       0.0 0.0 0.0 0.0
000050 00 00 00 00 00 00 00 00 00 00 00 00 00 00 00 00
       0.0 0.0 0.0 0.0
000060 00 00 00 00 00 00 00 00 00 00 00 00 00 00 00 00
       0.0 0.0 0.0 0.0
000070 00 00 00 00 00 00 00 00 00 00 00 00 00 00 00 00
       0.0 0.0 0.0 0.0
000080 00 00 80 3f 00 00 80 3f 00 00 00 00 00 00 00 00
       1.0 1.0 0.0 0.0
000090 00 00 00 00 00 00 00 00 00 00 00 00 00 00 00 00
       0.0 0.0 0.0 0.0
0000a0 00 00 00 00 00 00 00 00 00 00 00 00 00 00 00 00
       0.0 0.0 0.0 0.0
0000b0 00 00 00 00 00 00 00 00 00 00 00 00 00 00 00 00
       0.0 0.0 0.0 0.0
0000c0 00 00 00 00 00 00 00 00 00 00 00 00 00 00 00 00
       0.0 0.0 0.0 0.0
0000d0 00 00 00 00 00 00 00 00 00 00 00 00 00 00 00 00
       0.0 0.0 0.0 0.0
0000e0 00 00 00 00 00 00 00 00 00 00 00 00 00 00 00 00
       0.0 0.0 0.0 0.0
0000f0 00 00 00 00 00 00 00 00 00 00 00 00 00 00 00 00
       0.0 0.0 0.0 0.0
000100 00 00 80 3f 00 00 80 3f 00 00 80 3f 00 00 00 00
       1.0 1.0 1.0 0.0
000110 00 00 00 00 00 00 00 00 00 00 00 00 00 00 00 00
       0.0 0.0 0.0 0.0
000120 00 00 00 00 00 00 00 00 00 00 00 00 00 00 00 00
       0.0 0.0 0.0 0.0
000130 00 00 00 00 00 00 00 00 00 00 00 00 00 00 00 00
       0.0 0.0 0.0 0.0
000140 00 00 00 00 00 00 00 00 00 00 00 00 00 00 00 00
       0.0 0.0 0.0 0.0
000150 00 00 00 00 00 00 00 00 00 00 00 00 00 00 00 00
       0.0 0.0 0.0 0.0
000160 00 00 00 00 00 00 00 00 00 00 00 00 00 00 00 00
       0.0 0.0 0.0 0.0
000170 00 00 00 00 00 00 00 00 00 00 00 00 00 00 00 00
       0.0 0.0 0.0 0.0
000180 00 00 80 3f 00 00 80 3f 00 00 80 3f 00 00 80 3f
       1.0 1.0 1.0 1.0
000190 00 00 00 00 00 00 00 00 00 00 00 00 00 00 00 00
       0.0 0.0 0.0 0.0
0001a0 00 00 00 00 00 00 00 00 00 00 00 00 00 00 00 00
       0.0 0.0 0.0 0.0
0001b0 00 00 00 00 00 00 00 00 00 00 00 00 00 00 00 00
       0.0 0.0 0.0 0.0
0001c0 00 00 00 00 00 00 00 00 00 00 00 00 00 00 00 00
       0.0 0.0 0.0 0.0
0001d0 00 00 00 00 00 00 00 00 00 00 00 00 00 00 00 00
       0.0 0.0 0.0 0.0
0001e0 00 00 00 00 00 00 00 00 00 00 00 00 00 00 00 00
       0.0 0.0 0.0 0.0
0001f0 00 00 00 00 00 00 00 00 00 00 00 00 00 00 00 00
       0.0 0.0 0.0 0.0
000200 00 00 80 3f 00 00 80 3f 00 00 80 3f 00 00 80 3f
       1.0 1.0 1.0 1.0
000210 00 00 80 3f 00 00 00 00 00 00 00 00 00 00 00 00
       1.0 0.0 0.0 0.0
000220 00 00 00 00 00 00 00 00 00 00 00 00 00 00 00 00
       0.0 0.0 0.0 0.0
000230 00 00 00 00 00 00 00 00 00 00 00 00 00 00 00 00
       0.0 0.0 0.0 0.0
000240 00 00 00 00 00 00 00 00 00 00 00 00 00 00 00 00
       0.0 0.0 0.0 0.0
000250 00 00 00 00 00 00 00 00 00 00 00 00 00 00 00 00
       0.0 0.0 0.0 0.0
000260 00 00 00 00 00 00 00 00 00 00 00 00 00 00 00 00
       0.0 0.0 0.0 0.0
000270 00 00 00 00 00 00 00 00 00 00 00 00 00 00 00 00
       0.0 0.0 0.0 0.0
000280 00 00 80 3f 00 00 80 3f 00 00 80 3f 00 00 80 3f
       1.0 1.0 1.0 1.0
000290 00 00 80 3f 00 00 80 3f 00 00 00 00 00 00 00 00
       1.0 1.0 0.0 0.0
0002a0 00 00 00 00 00 00 00 00 00 00 00 00 00 00 00 00
       0.0 0.0 0.0 0.0
0002b0 00 00 00 00 00 00 00 00 00 00 00 00 00 00 00 00
       0.0 0.0 0.0 0.0
0002c0 00 00 00 00 00 00 00 00 00 00 00 00 00 00 00 00
       0.0 0.0 0.0 0.0
0002d0 00 00 00 00 00 00 00 00 00 00 00 00 00 00 00 00
       0.0 0.0 0.0 0.0
0002e0 00 00 00 00 00 00 00 00 00 00 00 00 00 00 00 00
       0.0 0.0 0.0 0.0
0002f0 00 00 00 00 00 00 00 00 00 00 00 00 00 00 00 00
       0.0 0.0 0.0 0.0
000300 00 00 80 3f 00 00 80 3f 00 00 80 3f 00 00 80 3f
       1.0 1.0 1.0 1.0
000310 00 00 80 3f 00 00 80 3f 00 00 80 3f 00 00 00 00
       1.0 1.0 1.0 0.0
000320 00 00 00 00 00 00 00 00 00 00 00 00 00 00 00 00
       0.0 0.0 0.0 0.0
000330 00 00 00 00 00 00 00 00 00 00 00 00 00 00 00 00
       0.0 0.0 0.0 0.0
000340 00 00 00 00 00 00 00 00 00 00 00 00 00 00 00 00
       0.0 0.0 0.0 0.0
000350 00 00 00 00 00 00 00 00 00 00 00 00 00 00 00 00
       0.0 0.0 0.0 0.0
000360 00 00 00 00 00 00 00 00 00 00 00 00 00 00 00 00
       0.0 0.0 0.0 0.0
000370 00 00 00 00 00 00 00 00 00 00 00 00 00 00 00 00
       0.0 0.0 0.0 0.0
000380 00 00 80 3f 00 00 80 3f 00 00 80 3f 00 00 80 3f
       1.0 1.0 1.0 1.0
000390 00 00 80 3f 00 00 80 3f 00 00 80 3f 00 00 80 3f
       1.0 1.0 1.0 1.0
0003a0 00 00 00 00 00 00 00 00 00 00 00 00 00 00 00 00
       0.0 0.0 0.0 0.0
0003b0 00 00 00 00 00 00 00 00 00 00 00 00 00 00 00 00
       0.0 0.0 0.0 0.0
0003c0 00 00 00 00 00 00 00 00 00 00 00 00 00 00 00 00
       0.0 0.0 0.0 0.0
0003d0 00 00 00 00 00 00 00 00 00 00 00 00 00 00 00 00
       0.0 0.0 0.0 0.0
0003e0 00 00 00 00 00 00 00 00 00 00 00 00 00 00 00 00
       0.0 0.0 0.0 0.0
0003f0 00 00 00 00 00 00 00 00 00 00 00 00 00 00 00 00
       0.0 0.0 0.0 0.0
